nets/value100k.pth (torch, 649087 bytes, 25 tensors)

a1.weight f4 [16, 5, 3, 3]
000000 a9 e9 1d 3e 7f d9 0f be ea 6c 70 3e 2c cb 13 3d
       0.15421166 -0.14047812 0.23479047 0.03608243
000010 3f 5a b2 3e f7 98 e0 3e 84 23 86 3e a2 45 2b 3d
       0.34834477 0.43866703 0.2619897 0.041814454
000020 27 c5 39 3e 5a c3 34 3e 58 13 32 be 37 f2 0d 3d
       0.18141614 0.17652646 -0.17390192 0.034654822
000030 70 6f da bd 45 cd c7 3e 3d ff 93 3e 7f 2f 47 be
       -0.10665786 0.39023796 0.2890567 -0.19451712
000040 a0 63 e2 bd 88 0e 8c be 4a 27 1a bd 41 98 b6 be
       -0.11054158 -0.27354836 -0.037635125 -0.35663036
000050 20 60 0d be 8d 07 a3 3d 65 0e 55 be a1 7f 8e bd
       -0.138062 0.079604246 -0.20806272 -0.06957937
000060 0d 9f 9f be ad ea 64 be b3 da 0c 3e b4 47 55 be
       -0.31176034 -0.22355147 0.13755302 -0.20828134
000070 4a a1 4f bf 6e 61 af bb e5 a1 b8 be 81 8a 0a 3e
       -0.8110548 -0.0053521907 -0.36061016 0.13529398
000080 04 cc aa 3c 5a d4 e7 bc 98 32 99 be d0 b7 37 3e
       0.020849235 -0.0282995 -0.29921412 0.17941213
000090 5d bd cb bd 21 0a eb 3d 13 ce b2 bc 80 81 db bc
       -0.099482276 0.11476541 -0.02182678 -0.026795149
0000a0 d4 cc 0d 3d 91 27 a6 bc 44 f0 74 3d 41 4a 26 bd
       0.034619167 -0.020282539 0.059799448 -0.040598158
0000b0 a3 10 a9 bc 48 c5 7c be 28 6d 90 3e 66 91 86 bc
       -0.020637816 -0.24684632 0.2820828 -0.016426753
0000c0 aa 01 6f 3e df ee 66 bd 04 28 59 3e 1b c2 b3 3d
       0.23340479 -0.05638015 0.21206671 0.08777257
0000d0 0c 4c a2 3e 73 cc 02 3e ec 1a 42 be 87 15 e1 bd
       0.31698644 0.12773304 -0.18955582 -0.10990434
0000e0 56 41 d2 3d cc 44 e1 bd fa 0a 31 3e 67 3e 46 be
       0.10266368 -0.1099945 0.17289343 -0.19359742
0000f0 a1 ad c2 be 33 53 44 bf 23 7b 59 be 68 16 86 3e
       -0.38023093 -0.7668945 -0.21238379 0.2618897
000100 7a eb 00 bd ba e2 06 3f 8a 76 1e 3e 32 46 64 3e
       -0.031474568 0.5268971 0.15474907 0.22292402
000110 b0 1a c7 3d 4e ef 4f 3d 53 73 16 bf af 4d 67 bd
       0.09721887 0.050765328 -0.5876972 -0.05647057
000120 06 06 43 3d 1d a6 88 3c d3 7d e6 bc 5e 9c ad bd
       0.047613166 0.016680771 -0.02813617 -0.0847709
000130 8c d8 0e 3d 00 27 0d 3e f5 ae 2e be 1a 50 11 3f
       0.034874484 0.13784409 -0.17058928 0.5676285
000140 e2 64 56 3a 11 80 c8 3c 4b 39 1a 3d 3c 97 f9 bd
       0.0008178485 0.02447513 0.037652295 -0.12187049
000150 95 a0 5d bd 19 23 8c 3d ba 58 a6 3d 9a fd 5f bc
       -0.05410822 0.06842632 0.08122392 -0.013671303
000160 22 24 47 bd 84 32 f9 bb 4a d3 a7 3e 16 f0 61 3e
       -0.048618443 -0.007604899 0.32778388 0.22064242
000170 73 17 0e 3f 0e 03 94 3e ac b3 68 3e 11 e5 a6 bb
       0.5550453 0.2890858 0.2272479 -0.005093225
000180 35 55 38 3e f0 85 bd bd 32 aa 5b 3e c5 88 df 3d
       0.18001254 -0.09254062 0.21451643 0.109147586
000190 87 fb 23 3e d1 da b7 3c b0 c3 1c 3d da 97 fa 3d
       0.16013919 0.022443207 0.03827256 0.12235995
0001a0 42 62 2e be d8 da d1 3d 13 df 2f 3d da 57 6a be
       -0.1702967 0.10246819 0.04293735 -0.22885075
0001b0 c9 6a af 3d fc 4d 84 be c6 23 27 3e 1f fb 80 be
       0.085652895 -0.25840747 0.1632224 -0.2519159
0001c0 b3 ec 3e be b2 90 a9 3c c3 de 47 3d 41 ad 2d 3d
       -0.18644981 0.020698879 0.048796427 0.042401556
0001d0 5d 9b 63 3d a2 a9 05 be b0 ef 5c be e0 05 2f be
       0.055568088 -0.13052991 -0.21575809 -0.17092085
0001e0 85 6c 24 bc 38 97 47 3d 63 7d fb be b6 8b 9e be
       -0.010035639 0.048728198 -0.491191 -0.30965966
0001f0 5b 6c c8 3d 63 bd 80 3e 43 19 53 bd e8 25 8c bc
       0.09786292 0.2514449 -0.051537763 -0.017107919
000200 9c 63 9e 3d 56 90 c2 3d b9 39 1e be f7 df b9 3b
       0.07733843 0.09500186 -0.15451707 0.0056724506
000210 f0 b0 f2 b9 ca ba 95 3d c5 2e 8a bb 8a 17 46 be
       -0.00046289666 0.07311018 -0.004217001 -0.19344917
000220 20 7b 73 3d 6f 59 18 3b e7 68 16 bd 08 9b 07 be
       0.059443593 0.0023246666 -0.036721136 -0.13242733
000230 ae 0b 6d be db 93 3a bd 78 5d 9b bd 7d 91 c4 be
       -0.23148987 -0.045551162 -0.07586187 -0.3839225
000240 d0 87 2a bd 58 a8 88 3d 9a bc 5b 3c 5a fa 89 be
       -0.041633427 0.06672734 0.013411665 -0.26948816
000250 44 75 6e 3e 65 65 22 3e f8 db d1 bc 96 ed 0a 3e
       0.23286921 0.15858991 -0.025617585 0.13567194
000260 ff 85 a9 bd 86 54 d7 be 0d e5 0f bf 7f 7f 69 be
       -0.08277511 -0.42056674 -0.5620888 -0.22802542
000270 1c 95 90 be a0 02 4f bd fe 8f 31 bf 07 7f 22 be
       -0.2823876 -0.050539613 -0.6936034 -0.1586877
000280 0a c9 44 be fe 66 d0 be 8e f1 c5 3e 5d aa b7 3e
       -0.19217315 -0.40703577 0.38660854 0.35872164
000290 05 b0 b4 3e ba 11 0e 3f a8 9a 43 3d d1 95 11 3f
       0.35290542 0.554958 0.047754914 0.56869227
0002a0 3b 4f 12 3e 90 6b 0e be c1 88 b1 3e e2 54 d1 3a
       0.14288037 -0.1390822 0.34674647 0.0015970732
0002b0 42 50 6c bd 97 65 64 3c 5f db d1 3c 2f 7f cb 3c
       -0.057693727 0.0139402365 0.0256173 0.02484092
0002c0 c1 3e 94 3c 07 13 85 bc ad 15 4b bd 1b c6 5d 3c
       0.01809633 -0.016244425 -0.04958122 0.013536002
0002d0 81 a6 6d bd da 62 f8 3c 5a 8d fa 3e e4 f3 a5 3d
       -0.05802012 0.030320574 0.48935968 0.08103159
0002e0 30 08 7d 3e d3 db 02 3c 71 d9 93 3e 94 6c 1e be
       0.24710155 0.0079869805 0.28876832 -0.15471107
0002f0 44 14 3b be f4 36 f4 bb ce 3f cd bd 65 ce 70 3e
       -0.1826945 -0.00745284 -0.100219354 0.23516233
000300 d9 85 d1 be 39 f9 54 bf 94 ef ae 3e e3 6b 48 be
       -0.4092243 -0.83192784 0.3416716 -0.19572406
000310 d6 c3 4c be 4f 5f b4 3d 1b 9e ba be 80 a0 d1 3d
       -0.1999658 0.08807241 -0.3644875 0.10235691
000320 06 9a 6a 3e 3a 6b 18 3e 78 66 29 bf 3a 63 38 bd
       0.22910318 0.14884654 -0.6617198 -0.045016505
000330 e5 3d 07 be 4d 3d b5 3c 8e d8 dd 3d f7 e5 4e be
       -0.13207205 0.022123957 0.1083232 -0.20204912
000340 9a 12 be 3c 81 5f 92 be d6 3a cc bc c8 55 24 3f
       0.02320223 -0.2858849 -0.024930399 0.6419339
000350 bb 81 20 3e b3 b3 11 bd 16 c0 d6 3e 96 f7 19 be
       0.15674488 -0.035571765 0.41943425 -0.15035853
000360 6d 25 3a bc c7 33 87 3d c3 44 6c bc a2 6f 97 bd
       -0.011361462 0.066016726 -0.014420691 -0.07394339
000370 a3 b7 9d bd 42 ee 67 3d 18 98 ad 3d e1 98 74 bd
       -0.077010415 0.056623705 0.08476275 -0.05971611
000380 83 94 8d bc 8e ba 30 be 72 b2 26 be 9a 73 ea be
       -0.01728273 -0.17258665 -0.16279009 -0.45791322
000390 2e dd b8 bc ff 3b bb bd 1d 7f 45 bf af e5 8b be
       -0.022566404 -0.09142303 -0.77147084 -0.27323672
0003a0 e3 86 35 be ad 5f 95 3d 9e 7a 82 3d 23 ec 81 3d
       -0.17727236 0.07293639 0.063710436 0.06343868
0003b0 31 f4 e5 be d8 54 44 3e f8 f9 92 bd 28 d0 2b bd
       -0.44912866 0.1917299 -0.07176584 -0.04194656
0003c0 8b 7a 51 3e 45 6d eb 3e 3e 67 3d 3e 44 6a 9c 3e
       0.20456903 0.45981804 0.18496415 0.30549824
0003d0 14 51 d5 bc ec 40 cb 3e 1d 89 d9 3e 3b 03 ee 3d
       -0.026039638 0.3969797 0.42487422 0.1162171
0003e0 1a 80 2e be 54 27 04 be d5 57 ce be eb 2d ca 3e
       -0.17041054 -0.12905627 -0.40301386 0.39488158
0003f0 c8 1d 8a be 1d df b3 bc 41 96 4e 3e b8 9e e8 be
       -0.26975846 -0.021956975 0.20174505 -0.45433593

a1.bias f4 [16]
000000 f0 20 1b bd c9 61 9a bd 21 87 16 3e 64 19 80 bc
       -0.03787321 -0.07538182 0.14699985 -0.015637107
000010 f4 87 b0 bd 60 b1 22 3e cd cf d3 3d 68 52 41 be
       -0.08619681 0.15887976 0.10342369 -0.18879092
000020 3c 0b 4c be 0e 98 62 be d4 1c 9d 3d a0 6d 01 be
       -0.1992616 -0.22128317 0.07671514 -0.12639475
000030 95 7b e6 3d d4 a2 22 3d db fa 89 be 67 95 c2 bd
       0.1125404 0.039706066 -0.269492 -0.095011525

a2.weight f4 [16, 16, 3, 3]
000000 ef 79 97 3e d6 67 a8 3c 99 a2 92 bc 4d 0e 0b be
       0.29585215 0.020557325 -0.017899798 -0.13579674
000010 66 3b be 3d 9e 4e 8c bc e5 be 6b bc b5 8f 4d bd
       0.09288673 -0.017127331 -0.0143887745 -0.050185878
000020 cd 53 7e 3e 64 a9 88 3d 40 67 70 3d 24 71 a3 3e
       0.24836655 0.06672934 0.058692217 0.31922257
000030 46 6f ba bd 7d 4b d6 bd d2 76 23 3e 40 a8 e6 3d
       -0.09103255 -0.10463617 0.15963295 0.1126256
000040 de 87 a3 3d 28 e6 5a 3e 27 1b 47 3e 0c 4f 8e be
       0.07984899 0.2137686 0.19443952 -0.27794683
000050 d6 ee 0b 3e 48 fc ce bd 2a f3 ee 3d a8 4b 56 3d
       0.13665327 -0.101067126 0.116674736 0.052318245
000060 00 f7 2a 3d 0e c0 67 3d 06 a8 38 3e 64 78 3f 3e
       0.041739464 0.056579642 0.18032846 0.18698269
000070 47 f9 39 3d c7 25 9f be cb 99 a6 bd 06 05 8d 3d
       0.045403745 -0.3108351 -0.081348024 0.06885724
000080 a9 28 8a bd 76 ad bb bd 1c c7 95 bd 5a 8d 11 be
       -0.067460366 -0.091639444 -0.07313368 -0.14214078
000090 e2 61 a7 bd d7 b4 86 bd b5 5e 66 3e 12 c4 4f be
       -0.081729665 -0.06577461 0.22497065 -0.20289639
0000a0 3e 32 be 3d 57 2c 8c 3d 50 63 84 be 1e b9 85 3e
       0.09286927 0.06844395 -0.2585702 0.26117796
0000b0 33 aa 68 3d 14 45 41 be 94 9b 21 be 80 2b 71 3d
       0.05680294 -0.18874007 -0.15782005 0.058879375
0000c0 fb 0b 1a be 96 c2 00 be 18 7f 58 ba ed 21 26 bc
       -0.15043633 -0.12574229 -0.00082586845 -0.0101399245
0000d0 40 65 8f be d1 3e 54 be d5 0b af 3c 0b ea 93 3d
       -0.28006935 -0.20727088 0.021367947 0.072223745
0000e0 a0 db 18 3e 91 6b 1f 3d 59 d2 5e 3e 29 d3 5b bd
       0.1492753 0.038920943 0.21759929 -0.053668175
0000f0 9d 26 e7 bb b4 f8 c6 bb 61 17 e6 3d ac a0 8c 3d
       -0.0070541636 -0.006072128 0.11234928 0.06866583
000100 9a 7f 33 3e 8b 14 41 bd 25 3a 27 3e 53 ad 9c 3c
       0.17529145 -0.047138732 0.16330774 0.019125616
000110 03 d1 63 3e 5d a0 04 be 44 80 1b bd 0e c1 dc bd
       0.222477 -0.12951799 -0.03796412 -0.1077901
000120 d6 f2 71 3e 5a df 18 be e4 56 2f bc 37 83 86 be
       0.23627791 -0.14928952 -0.010701869 -0.26271984
000130 e8 f9 a0 3d 5a 1f 2a bd 17 7b b3 be 48 e4 c1 be
       0.07860166 -0.041533805 -0.35054848 -0.37869477
000140 e1 cf 50 bd 0f d4 1a 3d 19 be ea 3c d6 75 5c bc
       -0.0509795 0.03779989 0.028655099 -0.013455829
000150 ff 76 a5 3d d0 04 77 ba 97 26 37 bd 14 fb ea 3d
       0.08079337 -0.00094230194 -0.044714537 0.114736706
000160 00 d8 c4 3c e9 c2 26 bd fb 29 80 3d 93 79 3f 3e
       0.024028778 -0.040713225 0.06258007 0.1869872
000170 7e 6a c6 bd 95 be a5 bd 3a fd c8 3d aa e4 f5 bd
       -0.096882805 -0.08092991 0.09813924 -0.12006505
000180 f8 7d e5 bd bc e8 e9 3d 75 af 34 be 9c b9 cd 3d
       -0.11205667 0.11421344 -0.17645057 0.10045168
000190 c1 ab 17 3e d1 5d 01 3e c5 29 8f 3e a8 96 09 3e
       0.14811613 0.12633444 0.27961555 0.13436377
0001a0 3d 44 33 3e 1e b0 ea 3d 85 1b 83 bd 57 8a 99 3e
       0.175065 0.11459373 -0.06401733 0.29988357
0001b0 da a9 c0 bd 58 f6 55 3e 06 7c d3 3d 19 59 f6 bc
       -0.094073966 0.20894754 0.1032639 -0.030071782
0001c0 ef 3d 8c 3e 51 f2 16 3b bd c3 ad 3e c7 0b 23 be
       0.27391002 0.0023032615 0.339384 -0.15922461
0001d0 4b a6 11 3e ec 58 79 bd e9 20 48 be c7 3e 47 be
       0.14223592 -0.060875818 -0.19543804 -0.19457541
0001e0 78 f6 9d be 8e 18 be bc de 59 3f 3d c4 a9 42 be
       -0.30852103 -0.023205068 0.046716563 -0.19010073
0001f0 03 43 ac be cc 10 14 be 79 70 ad bd 78 79 b2 bc
       -0.33644876 -0.14459532 -0.08468718 -0.021786436
000200 f9 23 92 3e 01 e2 d6 3d 3f ba 37 be 65 fd a1 3e
       0.2854307 0.104923256 -0.17942141 0.31638637
000210 9a c8 22 be a8 9e ad 3d 1b 5f 0e 3b 2d 06 17 3e
       -0.15896836 0.08477527 0.0021724168 0.1474845
000220 45 08 3e 3c ac 01 ba bd 27 82 46 be 1b 2a c2 be
       0.011598651 -0.0908235 -0.19385587 -0.3792275
000230 08 52 8b be d6 26 15 be 14 74 11 be 0d 62 87 be
       -0.27211022 -0.14565596 -0.14204437 -0.26441994
000240 b8 25 a3 bd b0 7a 46 bd 58 cd 91 3d d1 56 98 bd
       -0.07966179 -0.048456848 0.07119244 -0.07438434
000250 6d ce 6b bd 57 60 03 bd ce fd a5 bd d1 22 05 bd
       -0.05756991 -0.0320743 -0.0810505 -0.032503907
000260 4b f6 04 bd 67 eb 8e bd 86 7e 15 3d 7a a1 87 bc
       -0.032461446 -0.06978493 0.036497615 -0.01655649
000270 b8 53 b4 bd 26 96 b6 bc 1d f0 de bd a2 93 de bc
       -0.088050306 -0.022288393 -0.10885642 -0.027170006
000280 a7 c8 bb bd 86 75 ce bc 2a 6d 67 bc bc 94 e2 3b
       -0.09169131 -0.025202524 -0.014125148 0.006914703
000290 11 a5 74 bd b4 99 96 bb ec 53 89 bd 81 af 85 bd
       -0.059727732 -0.0045959596 -0.0670546 -0.06527615
0002a0 58 69 ac bc 40 22 85 b8 6c 42 c4 bc 91 8a 89 bd
       -0.021046326 -6.348314e-05 -0.023957454 -0.067158826
0002b0 f1 ed 95 bd f5 93 69 ba ec 41 1d bb 53 e9 2b bc
       -0.07320774 -0.0008910292 -0.0023995591 -0.010492641
0002c0 13 f6 58 3c 68 70 10 3d 0e a2 b4 bc 75 2e 3a bc
       0.013242262 0.03526345 -0.02204993 -0.011363615
0002d0 58 3c e7 bc fa 30 4f bd f1 63 a0 bd 59 c9 51 3d
       -0.028227016 -0.050583817 -0.07831562 0.05121741
0002e0 85 7c 2a bd ce 84 5e bc 01 83 82 bc dc 76 c4 bc
       -0.041622657 -0.013581468 -0.015931608 -0.023982458
0002f0 7b 66 96 bc 9f 66 70 bd 9f 2d 78 3d 58 3d bf bc
       -0.018359413 -0.058691617 0.060590383 -0.02334468
000300 fd af 77 bc cd 0e 06 3d 5b f8 9a 3c 4e b5 76 ba
       -0.0151176425 0.03272896 0.018917253 -0.0009411172
000310 a9 09 c3 bc ec 81 7d bd 11 b3 82 bd 0f 00 92 3c
       -0.023808317 -0.06189148 -0.063818105 0.017822294
000320 1e b2 4b bd 03 b8 a6 bb 76 93 ba bd 88 21 5c bc
       -0.049730413 -0.005087854 -0.09110157 -0.013435729
000330 d2 b6 c5 3c 0b c6 8e 3a de 5e c0 bd 36 4d 45 3d
       0.024135027 0.0010892762 -0.093930945 0.048169337
000340 74 a4 1e bd b5 51 1f bd 0a 21 e7 bc 60 de 1d 3d
       -0.038731053 -0.03889628 -0.028213996 0.03854215
000350 64 a9 8b bd d4 b0 bc bd 3e f4 53 bc 52 5c db bc
       -0.06819418 -0.09213415 -0.01293665 -0.02677742
000360 49 4f 38 3d 74 15 28 bd a4 8a 0a 3c 4a f9 01 bd
       0.044997487 -0.041036084 0.008455906 -0.03173188
000370 7f ca cf 3c 14 9d c2 bc 6f 6c 94 bc 0d 26 df bd
       0.025365112 -0.023756541 -0.018118111 -0.108959295
000380 c4 ff 70 3c f7 01 8f bc ab e1 ef 3c 75 9c 8d bd
       0.014709417 -0.017456992 0.029282412 -0.069146074
000390 eb 83 1e bd 03 0d 61 3d bb e2 bc 3c 6b 9a 98 bd
       -0.038700026 0.05494405 0.023057332 -0.07451328
0003a0 fb d6 9e 3b 12 a7 1a 3c c6 2d 9f bc f1 d3 44 bd
       0.004847405 0.009439247 -0.019431006 -0.048053686
0003b0 ad b7 9f bd e9 99 84 bd be 7a b2 bd 61 36 2a 3d
       -0.07798705 -0.064746685 -0.087148175 0.041555766
0003c0 b3 12 b4 3c 80 6f aa bc 59 25 84 bd ec 46 1c bd
       0.021981573 -0.02080512 -0.06452436 -0.038153574
0003d0 fc 78 58 3d 6a e2 42 bd 6c 92 41 bc bf 7f ae bd
       0.052849755 -0.047579207 -0.011814695 -0.085204594
0003e0 0b 7d 1e 3b f0 a2 c8 bd 3c e9 5b bb b2 9e 63 bd
       0.0024183418 -0.09796703 -0.0033555767 -0.055571266
0003f0 11 06 4a bd 66 a2 43 3d 44 a2 30 bd 0e 85 3c 3d
       -0.04932219 0.047762297 -0.0431235 0.04602533

a2.bias f4 [16]
000000 76 12 55 be e9 04 e6 bd 86 ef 10 be 2b b4 e2 3c
       -0.20807824 -0.11231405 -0.14153871 0.027673801
000010 1d 60 18 be 0d 3b f7 bd 27 40 a5 bd 71 89 b5 bd
       -0.14880414 -0.1207181 -0.08068877 -0.088641055
000020 dc e8 e8 be 84 da b3 3d cb e3 2b be 0b 3e f7 bd
       -0.45490158 0.08781913 -0.16786115 -0.12072381
000030 6c ff 7d be 41 98 1c be 3f d0 fb 3c 55 84 f4 3d
       -0.24804467 -0.15292455 0.030738948 0.11939303

a3.weight f4 [32, 16, 3, 3]
000000 53 f6 da be 97 3a ad 3d 21 46 9f be b0 ac 40 be
       -0.42766055 0.08458441 -0.31108192 -0.18815875
000010 50 b4 a6 3d f3 62 1c be 30 3b ad 3d cd f2 99 3d
       0.08139861 -0.15272121 0.08458555 0.07517014
000020 83 74 e5 bd da 6a 83 3b 6c 79 bb bc e8 d0 7f bd
       -0.112038635 0.0040105404 -0.022885047 -0.062455088
000030 cb 65 1e 3d 1c 71 13 3d ec 75 c8 3c de 36 9c 3d
       0.038671296 0.03599654 0.024470292 0.076276526
000040 35 70 c8 bb c2 59 04 bd e2 ad 7e bc 47 28 67 3e
       -0.0061168917 -0.032312162 -0.015544387 0.22573958
000050 05 15 2d bd 32 ce 58 be 62 94 d6 3e ee e0 6b 3d
       -0.042256374 -0.21172407 0.41910082 0.057587557
000060 5c f5 86 3e 67 5e e9 bd bf 3c b0 be 87 dd d0 3c
       0.2635907 -0.11394959 -0.34421346 0.025496257
000070 db cf 10 be 2b 0f 21 3b 46 50 4f 3e e1 aa 11 3e
       -0.1414179 0.0024575691 0.20245466 0.14225341
000080 13 3c a7 bc 33 ca af bb d3 ee 20 3f fd c6 33 be
       -0.020414388 -0.00536468 0.62864417 -0.17556377
000090 0e a2 a5 bd 87 77 0f bd 4d f0 37 be af 0b b3 be
       -0.0808755 -0.0350261 -0.17962761 -0.3496985
0000a0 ad 80 47 be cf 96 bf 3c de 01 c4 bd 7b 1a 77 3d
       -0.1948268 0.02338734 -0.09570669 0.060327988
0000b0 d3 9d 93 be 76 1f b4 be 87 b0 95 be 8b 73 55 bb
       -0.28831348 -0.35180253 -0.29236242 -0.003257009
0000c0 9c 8d 57 3c 97 97 5b 3c c6 ae b3 3e 96 a3 a4 be
       0.013156321 0.013402841 0.3509428 -0.32156056
0000d0 ef 8e a3 bd aa c0 ad 3d 34 2a e9 be e4 73 37 3e
       -0.07986247 0.084840134 -0.4554001 0.17915303
0000e0 4a 11 2d 3e 6b 85 72 3e 86 98 ba 3e c9 3b f3 bd
       0.16901127 0.23683707 0.3644449 -0.118766375
0000f0 40 a8 68 be 4a 21 a5 be 0a 03 82 be 98 ae 6c bd
       -0.22720432 -0.3225196 -0.25392944 -0.057783693
000100 0e 05 49 bd 40 85 28 bd b5 da 95 3d 45 c1 c1 3c
       -0.049077086 -0.041142702 0.07317106 0.023651728
000110 aa 3e f6 3c c6 da 6f bd 33 1e d7 3c e1 8c 75 bd
       0.030059177 -0.058558248 0.026259517 -0.059948806
000120 53 46 02 3e dd 78 08 3e 8e ee b9 bd 0d 18 34 3d
       0.12722139 0.13327356 -0.09078704 0.04396825
000130 85 8c 02 3e 60 6c 9c 3e 4b 65 4e 3e b0 51 06 3b
       0.12748916 0.30551434 0.20155828 0.0020495467
000140 85 d8 0a be 53 33 d2 bd 9f b9 12 3d 76 fe 37 be
       -0.13559158 -0.102636956 0.035821553 -0.17968163
000150 03 be 13 3e c5 0c bc 3d 3a af 42 3c 77 8d 0a 3e
       0.14427952 0.09182123 0.011882598 0.13530527
000160 2a 3f a7 3e 38 9d 4e bd 70 90 a4 be 46 89 b1 3e
       0.32665378 -0.050442904 -0.32141447 0.34675044
000170 86 6a c4 be 13 47 9f be 0c c3 ec be 0e 1d 1f be
       -0.3836252 -0.31108913 -0.4624256 -0.15538427
000180 2d 9d 6b 3e 6d d1 79 be c0 cd 49 be c8 e9 60 3e
       0.23009177 -0.24396296 -0.19707394 0.2196418
000190 25 c7 b6 3d 5f 41 03 bf 1e d5 b0 be 0d a9 11 3e
       0.089247026 -0.51271623 -0.34537596 0.14224644
0001a0 1d 83 4d be c2 b6 6f 3d 68 2e 9e 3d 5a bc 5e 3d
       -0.20069547 0.0585239 0.07723695 0.054378845
0001b0 b0 47 0d be 2c 69 61 be d7 05 b5 3e af 73 88 3e
       -0.13796878 -0.22012776 0.35356018 0.2665076
0001c0 78 95 11 be c5 12 b6 3c c0 3f 60 be 46 f1 68 3e
       -0.14217174 0.022225747 -0.21899319 0.22748289
0001d0 ad 82 1c be ab 41 58 be b2 b1 ec be f1 e4 90 3e
       -0.15284224 -0.211188 -0.4622932 0.28299668
0001e0 81 e3 92 bc fc 84 32 3e c5 a2 71 3d 6e 10 c8 bc
       -0.017930748 0.17433542 0.05899312 -0.024421897
0001f0 92 bd 50 3e e5 56 4d be 5f cc ab bc b7 ec ec 3d
       0.20384815 -0.20052679 -0.020971475 0.11568587
000200 59 a9 17 3a ca d6 18 be 41 a3 d3 be c4 71 90 bc
       0.00057854276 -0.14925686 -0.4133549 -0.017632373
000210 1b 68 b7 3d eb c1 9a 3d a4 f5 46 3e e7 00 e2 be
       0.089554034 0.07556518 0.19429642 -0.44141313
000220 d7 f2 97 be 71 91 70 3e 4a 81 ea 3d be 91 dc 3e
       -0.2967746 0.23492981 0.11450441 0.43079942
000230 27 83 c6 3d 29 bb 94 3e 4a 6b 01 be 01 60 06 be
       0.09692984 0.29049042 -0.12638584 -0.1312256
000240 ea ee 33 3d 92 10 c2 3c 91 c5 83 ba a1 c4 dd 3d
       0.043929018 0.023689542 -0.0010053386 0.108285196
000250 85 37 cc 3d 50 c2 56 bd 03 2d 85 3d 69 97 87 3e
       0.09971527 -0.052431405 0.06502726 0.26482704
000260 26 ad 0a be 75 99 6c 3d f2 07 a4 bd d6 48 5d bd
       -0.13542613 0.057763536 -0.08009328 -0.05402454
000270 21 31 05 bd 42 f3 aa 3b 5f f1 69 3d c3 c7 12 bd
       -0.032517556 0.005216987 0.057114955 -0.03583504
000280 e6 cc 86 3d 36 c6 ad bd 2a e7 1b be e7 bb 8e 3e
       0.0658205 -0.08485071 -0.15224901 0.27877733
000290 6c ff 73 be 66 79 a5 be 9b 56 39 3e 3a a1 a9 be
       -0.23827904 -0.32319182 0.18099444 -0.3313082
0002a0 66 05 03 3e dd b4 61 3b a2 b0 7c 3e a8 bd 84 3d
       0.12795028 0.0034440078 0.24676755 0.064814866
0002b0 2d 59 06 be 15 c4 71 3e dc e7 a2 be af 55 94 be
       -0.13119955 0.23609956 -0.3181752 -0.2897162
0002c0 fd 0b dd 3d 6d ec e3 bd 3a 74 8c bb d9 b0 c1 be
       0.10793302 -0.11129079 -0.004286316 -0.37830237
0002d0 be ca ab bd 9d 2f 23 3e fc bb 42 bd 48 c6 94 3e
       -0.083882794 0.15936132 -0.047542557 0.29057527
0002e0 66 a1 af be 1d 39 ac 3e ac 91 a6 be f6 62 0e 3e
       -0.34302825 0.33637324 -0.32533014 0.13904938
0002f0 92 5f e2 bc 35 fb 04 3e a6 52 8c 3e cf ca 30 3d
       -0.027633462 0.12986453 0.27406806 0.043162163
000300 1c 80 11 3d 12 ea 44 3e 8f e9 c9 bd b6 f9 73 3d
       0.035522565 0.19229916 -0.09859001 0.059564315
000310 73 65 b2 3d 83 ff d0 bc c0 10 4a be 97 a6 a2 be
       0.08710756 -0.025512462 -0.19732952 -0.31767723
000320 6f b3 a2 bd 41 da c3 3d ce 7b 0e 3e 4c 5d 2d 3e
       -0.079443805 0.09563113 0.13914415 0.16930121
000330 45 13 c6 3d 72 af 2a 3e 21 4f 08 3b c5 e5 28 bd
       0.09671644 0.1666849 0.0020799118 -0.04123475
000340 12 61 7a 3d ce 7a df 3c 09 28 8d bd af 69 60 3d
       0.06112773 0.027280238 -0.06892402 0.054788288
000350 0a 02 42 3d a9 b1 ab 3d 2b b4 44 3d 49 26 ba bd
       0.047365226 0.08383495 0.048023384 -0.090893336
000360 3d bf 7e bd e8 5d 05 be c7 7b 1a 3e ce d0 c6 3e
       -0.062194098 -0.13024104 0.1508628 0.3883118
000370 34 e1 30 3d 32 7b 1a 3e 7e 7e ab 3e 26 35 c1 bd
       0.04318352 0.15086058 0.33494943 -0.094339654
000380 4f 2e a2 be 44 72 58 3d 7a 2b c9 bd 46 d4 ac bd
       -0.31675956 0.052843347 -0.098227456 -0.084389254
000390 3a e3 99 be 16 c2 21 3e d1 da 39 be d1 3b 38 3e
       -0.30056173 0.15796694 -0.18149878 0.17991568
0003a0 f4 d8 fc bd 21 cc 09 3e e4 68 04 bf f1 bd 04 3e
       -0.12346068 0.13456775 -0.5172255 0.12963082
0003b0 8a 16 0c bf fe 66 21 3d d2 bd 2b 3e 0b 9e 21 3e
       -0.5472189 0.03940486 0.1677163 0.15782945
0003c0 85 4c 64 be 8e c3 32 be 82 20 c5 3e 10 c4 a6 be
       -0.22294815 -0.1745741 0.38501364 -0.3257146
0003d0 ed eb 5d bd 99 f3 82 3d 88 e1 86 bd 0c e8 5a bc
       -0.054180074 0.06394119 -0.065859854 -0.013360988
0003e0 4e 5e 67 3e 82 f2 b1 3b d0 4d af be f4 ef 32 3e
       0.22594568 0.0054305205 -0.34239054 0.17474347
0003f0 d9 1f 79 3e 95 f6 31 3e 7f 1d 9b 3d 54 76 74 be
       0.24328555 0.1737922 0.07573985 -0.23873264

a3.bias f4 [32]
000000 8a 30 03 3e 64 84 24 be de e1 09 be 59 1e c7 bc
       0.12811485 -0.16066128 -0.13465068 -0.024306463
000010 db e0 53 be 9a b1 a2 3e 6c 18 16 3f 51 1d b7 bd
       -0.20691244 0.31776124 0.58631015 -0.089411385
000020 e5 ee b4 bd c9 d8 d1 bd 57 59 a6 bc 95 26 c2 bd
       -0.08834628 -0.102464266 -0.020306272 -0.09480015
000030 fa 56 be be 99 34 9c 3e 74 55 7f bc 8c 9c d4 bc
       -0.37175733 0.3050888 -0.015584338 -0.025953554
000040 87 46 e9 3e 7e 0d cb 3c f0 e1 da be 50 68 35 be
       0.4556162 0.024786707 -0.42750502 -0.17715573
000050 d8 25 a7 be 2e 57 81 3e 0a ff 82 3c 38 d1 bc be
       -0.3264606 0.25261825 0.015990753 -0.3687837
000060 ec f9 d9 3d ea dd 07 be 15 b7 b7 bd 1f 99 04 be
       0.10643372 -0.13268247 -0.08970467 -0.12949036
000070 6c 1b 6d bd 8f e3 60 3f 09 ce cd bd e5 bf f2 39
       -0.05788748 0.87847227 -0.10049064 0.0004630081

b1.weight f4 [32, 32, 3, 3]
000000 0b 4b ec 3d dc c4 09 bf b8 60 76 be 27 d6 3a 3e
       0.11537751 -0.5381601 -0.24060333 0.18245755
000010 63 39 8c bd 03 2c f6 3e 46 3f 45 3e 41 ad 6b 3d
       -0.06846883 0.48080453 0.19262418 0.057538275
000020 88 4f e6 be 9c b3 f8 be c2 de 14 bf 34 32 80 be
       -0.44982553 -0.4857453 -0.581524 -0.25038302
000030 f6 75 2d 3e e4 93 96 3e 26 88 96 bd 89 4b ae 3e
       0.1693953 0.29409707 -0.07350187 0.34042004
000040 c6 fb 81 bb 77 7e 9b be fa a6 86 3d 6a 11 0f 3d
       -0.0039667813 -0.30369923 0.06574817 0.034928717
000050 50 c8 6e bd b8 6b db bd 83 4d f1 bc a3 0b f3 3d
       -0.0582965 -0.10713905 -0.029455906 0.11867454
000060 9b 88 50 3d 46 ad b5 3d 11 fb e3 bc 8a 0c a0 be
       0.050911527 0.0887094 -0.027829679 -0.31259567
000070 e1 d4 ac 3e 8a 32 06 3e 3b 3f 5b 3e a5 50 61 be
       0.33756164 0.13105217 0.2141084 -0.2200342
000080 56 4a b8 3d 62 de 36 3e 6e d2 14 be 97 9b 01 bf
       0.089985535 0.1785827 -0.14533398 -0.50628036
000090 88 61 51 be 42 d1 04 bf f3 f2 8f 3e 91 8b b8 bd
       -0.20447361 -0.518818 0.28115043 -0.09010995
0000a0 f3 cf 1d be cd f3 57 3e 76 03 f6 3c 51 49 90 3e
       -0.15411358 0.21089096 0.030030947 0.28180936
0000b0 a1 30 b0 be 9d 8b 8d be 99 a8 fd bc 81 70 e9 3b
       -0.344121 -0.2764558 -0.030964183 0.007124007
0000c0 2e e5 b6 bc 60 4c 75 3e 0b eb a4 bd 8c a4 5a bf
       -0.022326078 0.23954916 -0.080526434 -0.8540733
0000d0 f6 ba ba be c2 50 92 3d 7e 99 c8 be 2b e9 56 3e
       -0.36470765 0.071443096 -0.39179605 0.20987384
0000e0 f3 3d a6 bd 9b 50 cc bd 68 b9 04 3e 93 8a 96 bd
       -0.081172846 -0.09976312 0.12961352 -0.0735065
0000f0 d5 c5 98 3c 4f 4a 82 3e cd 18 a6 bd 97 7c 61 be
       0.018649021 0.25447318 -0.08110199 -0.22020184
000100 8a e6 7a 3e d9 b8 4a be 75 dc 58 3e c7 ed bd be
       0.24502006 -0.19797076 0.21177848 -0.37095472
000110 df 3d a6 3e 01 18 26 3e fe 27 fa 3d da 6d 06 bf
       0.3246908 0.16220094 0.12214659 -0.5251137
000120 5d 94 e5 be 56 e5 b2 be 3a 41 ab be 04 de b0 3e
       -0.44839755 -0.34940594 -0.334482 0.34544384
000130 41 53 aa be d9 8d 99 be cb b5 49 3e eb 78 79 bd
       -0.33266643 -0.29991034 0.19698255 -0.060906332
000140 46 1e dd 3c 8b dc 12 3c 2e 52 00 3e 59 f4 86 bd
       0.026991975 0.008963714 0.12531349 -0.06589574
000150 45 04 0f be 82 24 44 3e 4c 46 b5 be 1d 6d 5a 3d
       -0.13966472 0.19154552 -0.35405195 0.053326715
000160 d8 88 b5 3d 52 01 80 be bd e4 25 be 9b a9 8f 3e
       0.088639915 -0.25001007 -0.16200538 0.28059086
000170 ef de 46 be af e9 b2 be cc 67 99 be 96 2d 74 bd
       -0.1942098 -0.3494391 -0.29962003 -0.059613787
000180 18 dd 4e 3d e1 d6 99 be 01 fc 73 bd ae fb 1f 3f
       0.05050382 -0.30046752 -0.0595665 0.6249341
000190 43 67 b7 3d 2b 3f ac be 23 f4 cc bd 2d 96 b2 be
       0.089552425 -0.33641943 -0.10007503 -0.348802
0001a0 fd d1 84 be 25 e7 86 3e 43 93 b9 3c fa 0e a7 3d
       -0.25941458 0.26348224 0.022653228 0.081571534
0001b0 1a 24 af 3e 18 23 a4 3e 6c 0c 66 be ad 2d 65 3e
       0.3420723 0.32058024 -0.22465676 0.22380705
0001c0 8f ab 7e 3b 3d 09 29 bc 4b 8b a3 bd 52 28 15 be
       0.003885958 -0.010317144 -0.079855524 -0.14566162
0001d0 3c 27 5f 3d d6 de 7b be 84 65 9c be 67 63 78 be
       0.054480776 -0.24596724 -0.305462 -0.24256669
0001e0 0a 57 96 3e 81 6b ad 3e 47 7a 27 3e 56 03 43 3e
       0.2936328 0.3387108 0.16355239 0.19044241
0001f0 7a b6 81 3d bf 82 44 bc cd 45 53 be 83 0f c6 3d
       0.06333633 -0.011994063 -0.20632096 0.096709274
000200 46 59 91 3e 31 0a 8f 3d 2e d3 b3 3c 21 11 46 3d
       0.28388423 0.06984366 0.021951284 0.04835618
000210 14 ba ea be c7 22 cd be 9d d3 4b be c5 d6 f0 bd
       -0.4584509 -0.40065596 -0.19904943 -0.11759714
000220 5b 46 ec 3d cc 98 d5 bd 72 e5 3f 3e 72 9b bb be
       0.11536857 -0.10429534 0.1873987 -0.36642033
000230 81 66 59 be 5d 6b 46 3e bb bd dc 3d 2e 1e 7e 3e
       -0.21230508 0.19376893 0.10778376 0.248162
000240 13 20 d6 bd e4 72 02 3e d3 69 d5 bd 8d 6b 5f 3e
       -0.104553364 0.1273914 -0.10420575 0.21818371
000250 44 a3 ed be 5e d7 e0 3d b5 e2 05 be 64 38 ff 3e
       -0.46413624 0.10978578 -0.13074763 0.4984771
000260 7b 88 ab be 87 6e d6 3d 9d 54 8c bd a7 d9 3a bf
       -0.33502564 0.104703 -0.06852076 -0.7298836
000270 a1 0a 38 be 11 c9 e1 ba 13 f6 41 3d a3 d1 06 3e
       -0.17972805 -0.001722606 0.047353815 0.13165908
000280 e1 3b a6 3d 84 4b 1a 3e 52 1f 2f be 94 6d 7e bd
       0.0811689 0.1506787 -0.17101792 -0.06211622
000290 8d 60 6f 3e 85 4a db bc 9d 35 0b be 8f cb cb 3c
       0.23376675 -0.026768932 -0.1359467 0.024877338
0002a0 0b 79 47 be 9b f2 9a be f5 2a 45 bd 74 f4 41 3d
       -0.19479768 -0.30263218 -0.04813667 0.04735227
0002b0 bd bb 7d bc 46 d3 a2 3c e3 a4 4e 3d 0a 27 d4 bb
       -0.015486655 0.019876134 0.050450217 -0.0064743804
0002c0 d3 0f 8a 3c 28 39 50 bd 7a 9e 0d 3d 90 39 2f 3d
       0.016853249 -0.05083576 0.034574963 0.042779505
0002d0 ca ed dd 3d 37 c8 74 bd 1d 45 c9 be 45 db 7a 3d
       0.1083637 -0.059761252 -0.39310542 0.061244268
0002e0 a1 5a 88 3d 4c 12 bc bd 84 c3 58 bd 8b da 3f 3e
       0.06657911 -0.09183177 -0.052920833 0.18735711
0002f0 93 16 1d bd 07 d5 41 be 34 ac 1e 3e 1f 40 76 3e
       -0.038351607 -0.1892892 0.15495378 0.24047898
000300 31 a9 cd bd b8 26 95 3d 6e 5e 03 be cc a6 2a be
       -0.10042036 0.07282776 -0.12828991 -0.1666519
000310 5f 89 d6 be c8 c3 6e 3e 95 aa 8f bd 46 33 88 3d
       -0.4190168 0.23316872 -0.07014958 0.06650405
000320 c8 12 fa be 19 51 ff bd 87 b9 cf bc df a5 37 be
       -0.48842454 -0.1246664 -0.025357021 -0.17934369
000330 59 01 9c 3d 0c 12 ae bc e4 5a 01 be 10 e1 19 3d
       0.076174445 -0.02124884 -0.12632328 0.037568152
000340 a3 a9 0c be c6 b4 a3 3e c5 4d 9b 3e ae 4c 5f bd
       -0.13736586 0.31973857 0.3033277 -0.054516487
000350 71 45 fb be a5 cf 94 bd 5a 20 99 bd 26 3a 95 be
       -0.49076417 -0.072661676 -0.07476874 -0.29145926
000360 43 af ff 3d b6 63 b4 bd 82 6c 83 be 5e 85 f3 3d
       0.124846004 -0.08808081 -0.25668722 0.11890672
000370 1a d1 df be d1 ee f5 be 36 fc 0f 3d 44 cd a8 3d
       -0.4371422 -0.48033765 0.035152636 0.08242276
000380 04 10 a4 bd d9 fa 45 be cc 93 82 be b6 f9 c9 3e
       -0.08010867 -0.19333972 -0.25503385 0.39448327
000390 de f9 51 bd c6 11 63 3d d6 df 01 bd 4f ff 35 be
       -0.051263683 0.055436872 -0.031707607 -0.17773174
0003a0 d8 b8 47 3e be 0b 04 3e 1e 31 a3 bc 7d 3e 9f 3c
       0.19504106 0.12895104 -0.019920882 0.019438976
0003b0 6f d4 0f bd bb bc 91 3c f3 5e 93 bc 3f bc 97 bb
       -0.0351147 0.017790189 -0.017989611 -0.004630595
0003c0 5b 32 43 3d 3b 61 52 bd 8a a9 06 bc 16 70 72 be
       0.047655445 -0.051362257 -0.008219132 -0.2367557
0003d0 4b dc f4 bd 1d 4d 19 3e da a4 82 3e 52 9a b3 3e
       -0.1195608 0.14970823 0.25516397 0.35078675
0003e0 71 0a 76 3e d9 4d 08 ba 17 19 cd 3e c5 66 4d be
       0.2402742 -0.00051995885 0.40058205 -0.20058735
0003f0 ae b0 31 3e 64 4b fb 3d 70 26 be bc 1a 3a de bb
       0.17352554 0.12270239 -0.023211688 -0.0067818286

b1.bias f4 [32]
000000 d5 83 63 be b0 48 46 3c d6 01 66 be c2 28 ec bc
       -0.22218259 0.012102291 -0.22461638 -0.028828029
000010 a4 66 92 3e f1 45 5e be 99 d8 39 3e f0 a3 0c 3e
       0.28593934 -0.21706368 0.18149032 0.13734412
000020 3f 53 ef bc 4a 4d 4f be dd 62 67 3e b5 3a fb 3d
       -0.0292145 -0.20244327 0.22596307 0.12267057
000030 64 df 27 be b5 2b cd 3e e7 3a 28 3e 60 37 22 3e
       -0.1639381 0.40072408 0.1642872 0.15841436
000040 d7 e9 90 be 50 7a 56 be 06 c7 4a be 96 72 36 3d
       -0.28303406 -0.20945096 -0.19802484 0.04454287
000050 55 d7 53 3d a0 ad 8d bd 0e 13 af 3b 7c 47 6a be
       0.05171903 -0.06917882 0.0053428477 -0.22878832
000060 f7 9e 70 be b7 7a 9a bd 87 21 31 3e 69 ed 3b be
       -0.2349814 -0.07542937 0.17297946 -0.18352284
000070 90 0e e9 3b c0 12 6d be 0d 95 9c 3d a4 dd 28 be
       0.0071123317 -0.23151684 0.07645617 -0.16490799

b2.weight f4 [32, 32, 3, 3]
000000 4f c0 b9 be 98 c2 8d 3e 42 2c 39 3e 01 54 71 3e
       -0.36279532 0.27687526 0.1808329 0.23567201
000010 c0 2a 12 3c 02 60 c3 bd 67 da a3 3e fe 32 20 3e
       0.008921325 -0.095397964 0.32002565 0.15644452
000020 b9 ca e7 3c ce b3 ca be 15 8a da be 55 90 83 be
       0.028294908 -0.39590305 -0.42683473 -0.25696054
000030 b2 bf 3e 3d 4a 3f 50 3e 4a 44 87 3e 3a 05 89 be
       0.046569534 0.20336643 0.26419288 -0.267618
000040 68 d1 4b be 0f 23 bb 3e c9 a0 17 3e f9 50 f6 be
       -0.19904101 0.36550185 0.14807428 -0.48108652
000050 9d c1 a1 3d 70 17 b5 3d 1d df 03 3e ae 46 10 3e
       0.07898257 0.08842361 0.1287808 0.14089462
000060 54 89 9f be c7 35 db bd ea 8e 3b bd eb ff 4a 3d
       -0.3115946 -0.107036166 -0.04579059 0.04956047
000070 55 9b 52 3d 1a 3e f1 3e 95 d5 d8 bd 1d c7 99 be
       0.051417667 0.47117692 -0.105876125 -0.30034724
000080 ce c0 17 bd bd fe 81 be b5 d4 79 bd 04 28 0d 3e
       -0.037049107 -0.25389662 -0.06099387 0.13784796
000090 4c be ef 3d ca 4c a7 bd 0f a9 96 3e 21 4e 21 3e
       0.11706218 -0.08168943 0.29425856 0.1575246
0000a0 89 44 4b 3d f9 35 d1 be 92 84 06 be 86 55 bb bd
       0.049625907 -0.4086149 -0.13136509 -0.09147172
0000b0 39 9f 6e be 20 d0 a0 3e 48 29 8f bd f9 87 ef be
       -0.23302926 0.31408787 -0.06990296 -0.46783426
0000c0 c8 c8 66 be 62 bd 15 be fc ba 87 3c 9c 66 ac 3d
       -0.2253753 -0.14623025 0.016568653 0.08418009
0000d0 98 8d ab bc d0 da 0d be de 2a b4 bd 87 eb 8c bd
       -0.02094154 -0.13853002 -0.08797239 -0.06880861
0000e0 ca a6 ec bc 99 b0 bc be 31 81 37 bf 1c f6 12 3f
       -0.028888125 -0.36853483 -0.71681505 0.57406783
0000f0 3e e9 5d 3e f8 4a cf 3c 9d f9 fc 3d ca 18 07 bf
       0.21671006 0.025304303 0.123522975 -0.527722
000100 44 7b 7e bd 12 16 5e 3e 5e 5e 90 bd 45 59 cd 3c
       -0.062129274 0.21688107 -0.07049249 0.025066981
000110 9e 91 00 3e c9 31 67 3e 4b c2 11 be 0f 72 58 bf
       0.12555549 0.22577585 -0.14234273 -0.8454904
000120 12 74 e4 be 06 18 25 bf 6e de 5c 3e 64 2e d6 3d
       -0.44619805 -0.6448978 0.21569225 0.10458067
000130 22 b4 02 3e f7 23 24 be 21 9b 6d be ba a1 8c 3e
       0.12764028 -0.16029344 -0.23203708 0.27467138
000140 7d cc 9d be eb 1e 28 be 3a 9e 75 3e 8a 05 a4 be
       -0.30820075 -0.16418044 0.2398614 -0.32035476
000150 fa c9 4a bc 08 24 94 3e 9f 61 11 bf 35 4d 4f 3e
       -0.0123772565 0.2893374 -0.5678958 0.20244296
000160 f8 9d 40 be 4f 83 32 3d 8c a1 a8 bc 3a e9 c3 3d
       -0.1881026 0.043582257 -0.020584844 0.09565969
000170 7c cf 02 3e 66 e4 0c 3e 5a 15 2b be 79 ac 0b bf
       0.12774462 0.13759002 -0.16707364 -0.5456005
000180 d2 95 bf 3c 5b a1 41 bf 72 f8 16 be b2 65 10 3d
       0.02338687 -0.75636834 -0.14743212 0.035253234
000190 a0 83 91 3e 13 b1 15 3f ea aa e1 3b dd 49 49 3e
       0.28420734 0.5847332 0.0068868296 0.19657083
0001a0 2f 0a 8a 3d 0d a0 97 be 66 bf e1 3d 5d bb bc be
       0.067402236 -0.29614297 0.110228345 -0.36861697
0001b0 61 b3 91 be 20 d9 60 bb 48 d1 0f be 41 50 1f be
       -0.28457168 -0.0034309104 -0.14044678 -0.15557958
0001c0 7c 86 06 be 35 a5 0c bf 38 3d 01 3f 45 0f 63 3e
       -0.13137239 -0.54939586 0.5048404 0.22173794
0001d0 41 40 39 3d ff 08 99 3d 5d 04 42 be c9 a9 09 3e
       0.045227293 0.07472419 -0.18946977 0.13443674
0001e0 cf 19 28 3c 00 75 1d bc 23 fc 1f bf 11 81 c3 bd
       0.0102600595 -0.0096104145 -0.62494105 -0.09546102
0001f0 6d 22 d8 be 08 dd a4 3a 3e e3 f7 be 41 8b 65 3d
       -0.42213765 0.001257808 -0.4841556 0.056041006
000200 ee 9b 21 3d 7e 5e 6a 3e 4f b1 bc be a5 ec d7 bd
       0.039455347 0.22887608 -0.36854026 -0.10543183
000210 ef 74 9a be b6 94 bf bd d8 bb 35 be 07 03 18 3e
       -0.30167338 -0.09354536 -0.17747438 0.14844905
000220 6c 7b 57 be 64 ce 4c 3e ca f7 42 3e 5a 10 a5 bd
       -0.21043175 0.20000607 0.19039837 -0.080597594
000230 9f 59 55 bc a8 36 a6 be 4b a9 75 be e0 7a 3d bd
       -0.013021856 -0.32463574 -0.23990361 -0.04625976
000240 38 2a bd 3c 92 3c 1f 3d f2 fd 5c be 30 33 e5 3d
       0.02309142 0.038876124 -0.21581247 0.11191404
000250 ea 51 c5 3e 1c 95 95 be 6c 0d ad be 1e 1b 23 3d
       0.38539058 -0.29215324 -0.33799303 0.039820783
000260 99 ee 4b be 0c f6 df bd 30 67 e0 3d 57 bb 8e 3d
       -0.19915237 -0.109356016 0.109571815 0.06969326
000270 ce df 03 3e 85 f5 01 be 88 4d 92 3d 26 fb 83 3a
       0.12878343 -0.12691315 0.07143694 0.0010069355
000280 06 d0 15 3d 6b a2 b3 bd f7 2d 1e 3d 4a 4f 6e 3e
       0.03657534 -0.08771213 0.038618054 0.23272434
000290 e7 15 54 be 74 7d 6c bd ea 38 11 bb 33 ad 16 bf
       -0.2071148 -0.05773683 -0.0022159168 -0.5885803
0002a0 e5 74 d6 be 93 79 88 3e 4d 7c 99 3d 92 ad 81 3e
       -0.41886058 0.26655254 0.074944116 0.25327736
0002b0 52 ca ef 3d a0 63 a3 bd 29 c9 3f bf 95 bf 98 bd
       0.117085114 -0.07977986 -0.7491632 -0.074584164
0002c0 af 26 86 be b4 3c 47 3d 51 4b 36 bd 66 ba 07 bd
       -0.26201388 0.048641875 -0.04450542 -0.033136748
0002d0 27 1b 84 bd d5 44 e4 bd fb 16 08 3e a8 8d 75 be
       -0.064504914 -0.11145941 0.13290016 -0.23979819
0002e0 9a 1e 05 3e 89 fe b0 3e 6c 77 69 be d8 96 8c 3e
       0.12999955 0.34569195 -0.22799462 0.27458835
0002f0 71 35 bb bd 2a 3c ff be 9c e8 10 bf 0a 04 e2 be
       -0.091410525 -0.4985059 -0.56604934 -0.44143707
000300 7d 48 b0 bd a7 a8 d2 bd bf 2b d8 3b 8e d3 4e be
       -0.08607576 -0.10286074 0.006597012 -0.20197889
000310 ed 23 7a 3e 4d e4 3d 3e 06 a0 68 be 59 0f 40 3d
       0.24427767 0.18544121 -0.22717294 0.046889637
000320 b2 fb 20 bd 68 3c a5 3d af e5 95 3d 2b 57 fb bd
       -0.039302535 0.08068162 0.07319199 -0.12272485
000330 bc 21 1f 3d 00 c5 4f 3e 97 ff 9d 3e 4f 04 33 bf
       0.03885053 0.20289993 0.30859062 -0.6992845
000340 0e 56 95 3e 7f 78 aa 3e 03 34 2d 3e e8 d2 37 be
       0.29167217 0.33295056 0.16914372 -0.17951548
000350 e9 51 87 3e 66 b7 a5 be 35 42 1b be ce 74 07 3e
       0.2642968 -0.32366484 -0.15161975 0.13228151
000360 b4 ea 31 3f 6b 0c 12 bd 38 be 2a be 4b d8 40 bd
       0.69498754 -0.035656374 -0.16674125 -0.047081273
000370 e4 2e 35 be a0 95 05 bb 13 3f 0b bf 84 7b b4 3d
       -0.17693669 -0.0020383373 -0.5439312 0.08812621
000380 39 f2 68 be ef 93 61 3e fa 3c 13 3e 4c d5 8f 3e
       -0.2274865 0.22029088 0.1437873 0.2809242
000390 00 b6 e4 ba ca 80 39 be d5 b0 37 be e4 7c 69 3c
       -0.001744926 -0.18115535 -0.1793855 0.014250968
0003a0 0f 88 4f 3e 4c 4b 9b 3e ec 0e b8 be 59 58 00 3e
       0.20266746 0.30330884 -0.35948884 0.12533702
0003b0 a9 3c b2 be a1 f5 53 be 01 58 2f bd 80 8e 86 be
       -0.34811905 -0.20699169 -0.042808536 -0.26280594
0003c0 b9 53 c5 be 0f 9e 82 3d ee 0f ba bd 35 ed f2 be
       -0.38540438 0.063778035 -0.090850696 -0.474466
0003d0 17 04 27 bd 6b b6 e7 be 72 d4 98 be b9 66 aa 3e
       -0.040775385 -0.4525636 -0.29849583 0.33281496
0003e0 64 de 9e 3e c7 6b 2f bd 23 47 97 3c e9 79 9d be
       0.31029046 -0.042827394 0.018466538 -0.30757073
0003f0 72 c7 72 3d 7f 16 20 be e4 06 97 be 5f e3 2e 3e
       0.059272237 -0.15633582 -0.29497445 0.17078923

b2.bias f4 [32]
000000 54 d8 de be e4 e5 53 be 97 36 0c be 36 cf a5 be
       -0.4352442 -0.20693165 -0.136927 -0.32384652
000010 42 69 2e 3e 48 dd 3a bd 70 7d e7 bd a2 48 a4 bd
       0.1703234 -0.045621186 -0.11303222 -0.08021666
000020 da 4f 0a be 00 ba 9b bb ee 04 a0 bd 9d 59 ae be
       -0.13507023 -0.0047523975 -0.0781344 -0.34052745
000030 d6 2e ec 3d 9c ea 86 be fa a5 7b 3d 7d 46 b7 3c
       0.11532371 -0.26350868 0.061437584 0.022372479
000040 c0 36 58 3e 5f 45 03 be a1 72 93 3d 20 84 95 be
       0.21114635 -0.12819432 0.07199598 -0.29202366
000050 83 4a 1b be 44 1b 7b 3c d6 fa 42 3e 1a 89 49 3e
       -0.15165143 0.015326325 0.19040999 0.19681206
000060 b4 33 32 be b6 a2 f1 be 15 c2 da 3e 87 09 33 3e
       -0.17402536 -0.4719445 0.42726198 0.17484103
000070 af 2e 4e be ee da c3 be 8b d7 eb be 63 cc 9c be
       -0.20134996 -0.38252968 -0.46062884 -0.30624685

b3.weight f4 [64, 32, 3, 3]
000000 9f 0b e7 39 5a 07 c6 3c 79 44 54 3d 92 a7 f8 3c
       0.00044068412 0.024173427 0.051823113 0.030353341
000010 7e 89 b0 3c ae 48 1a bd bc 62 61 bc f4 59 3d 3c
       0.021549936 -0.03766697 -0.01375645 0.011557091
000020 30 d3 11 bd 28 bd 55 bc e3 7b 28 3d 80 ca 2f bd
       -0.035601795 -0.013045587 0.041133773 -0.04291773
000030 e7 e7 bb bc 31 ca 30 bd 85 c7 e8 3b 6a b8 86 bb
       -0.022937728 -0.043161575 0.0071038627 -0.0041113393
000040 13 df 3b bd 5a 5a d8 bc c9 3d d5 bc c6 0d 6f 3b
       -0.045867037 -0.02641027 -0.026030438 0.0036476715
000050 e2 b3 d7 bc db 1f 17 3d 3a 83 01 bd b4 c7 0d 3c
       -0.026330892 0.036895614 -0.031619288 0.00865357
000060 3a ce f3 bb 69 ff 31 3c 84 23 d5 3b dd 95 fd bc
       -0.0074403556 0.010864117 0.006504478 -0.03095525
000070 d6 ec 17 bd eb 8f b6 3c 55 cb 92 bc d5 dc 61 bd
       -0.0370911 0.022285422 -0.017919222 -0.055142242
000080 21 c6 92 bd 82 b5 e7 bd 78 0e 56 3b b6 83 74 bc
       -0.07166696 -0.11313917 0.0032662433 -0.01492398
000090 ee a2 36 bd 74 58 62 bd cc 4e 8c 3c 95 95 27 bd
       -0.044588976 -0.055260137 0.017127417 -0.040914137
0000a0 36 e1 aa bc 2e 3e 53 bd 16 a2 e9 bc 1c 47 7b bd
       -0.020859342 -0.05157297 -0.028519671 -0.061347112
0000b0 d3 1e 36 bc 5f 4d 43 bc 2f db ac bc b1 1d 51 bd
       -0.0111157475 -0.011920302 -0.021100609 -0.051053707
0000c0 d2 51 9b bb 76 92 53 bd 2e 30 8c bc 5c 05 17 3c
       -0.0047399784 -0.051653348 -0.017112818 0.009217586
0000d0 2b 45 bd 3c b5 3a 0e bd 98 d5 2e 3c fa 7c 47 bd
       0.02310427 -0.034723956 0.010671042 -0.04870317
0000e0 4d aa 1e bc bf df 37 3d 65 86 3d 3d 63 10 2c 3d
       -0.009684158 0.044891115 0.046270747 0.042007815
0000f0 7b 9b 20 3d e0 0c b8 bb b0 3d 7d 3b aa 3d 4c bd
       0.039210778 -0.005616769 0.0038641505 -0.049863495
000100 71 8c 5d bd fc b8 b3 bc da 58 28 3c ab b9 9e bc
       -0.054089013 -0.021938793 0.01027509 -0.019375643
000110 5d 44 60 bc 02 76 43 3d de 60 04 3d 1f 85 21 3d
       -0.013688174 0.047719963 0.032318942 0.039433595
000120 07 e3 05 bd 54 f2 f8 3c e8 34 25 bb 84 31 30 3c
       -0.032687213 0.030388989 -0.0025208537 0.010753993
000130 e9 7f 15 bd da 53 02 3d 46 89 52 3b c0 a1 74 3b
       -0.036498938 0.03181825 0.0032125278 0.0037327856
000140 2a b1 ce bc 0f b0 3c bd a2 c7 a1 3c 6b 8f f3 bc
       -0.025230963 -0.04606634 0.019748513 -0.029731473
000150 1d 92 b3 3c b6 bf 02 3d bd 74 3a bd d4 ad 56 bc
       0.021920258 0.03192111 -0.045521487 -0.013102967
000160 0b df 39 3d 81 25 f8 3c f4 98 67 bc 3d f5 a4 bd
       0.045378726 0.03029132 -0.014135588 -0.08054588
000170 80 57 36 bc 06 75 85 bd 74 3c 22 bc b8 8c b0 bc
       -0.01112926 -0.06516461 -0.009902108 -0.021551475
000180 10 a0 6b bd 52 89 af 3c d3 ad d8 3c 4f 42 46 3d
       -0.057525694 0.021427784 0.026450073 0.04840308
000190 be 17 8b 3c c8 7c 46 bd 29 21 39 3d a8 4e 91 bd
       0.016979095 -0.048458844 0.04519764 -0.070950806
0001a0 e0 2f ec bc f8 22 38 3d db 2c 56 3b ac fb 0b bc
       -0.028831422 0.044955224 0.0032680545 -0.00854389
0001b0 d7 e9 c0 bc 3e 10 b0 bc 50 56 52 bd f1 92 29 bd
       -0.023549004 -0.02149212 -0.051351845 -0.0413999
0001c0 16 27 86 3c 26 92 e6 3c c5 2d 7c bd 3d f0 94 3c
       0.01637606 0.02814586 -0.061567087 0.01818096
0001d0 26 c7 09 3d c7 36 64 bd 6f 2f 8a bc 29 81 38 bd
       0.03363719 -0.055716302 -0.016868321 -0.04504505
0001e0 72 16 7b bd 2f c4 b1 3c 7f 85 d6 3b ac 2c 20 bd
       -0.061300702 0.021699993 0.0065466757 -0.039105102
0001f0 40 48 a1 bd 53 21 9d bd e1 1d 55 bd 09 71 54 bd
       -0.07875109 -0.07672372 -0.052030448 -0.05186561
000200 85 31 69 bd a9 7e 63 bd b2 e0 9f bc 37 a7 6f bd
       -0.05693199 -0.055540714 -0.019516323 -0.058509078
000210 ea 9d 02 bd 93 47 64 bd 11 64 c0 bc ce 65 23 bd
       -0.03188888 -0.05573232 -0.023485215 -0.03989201
000220 9a 2d 94 bd 52 a7 29 3d 3c bc 2e 3d a8 82 29 bc
       -0.0723526 0.041419335 0.042659983 -0.010346092
000230 7c 7b 02 bd 39 bc 46 bc b9 59 b8 3c 94 59 8c bd
       -0.031856045 -0.012129837 0.02250372 -0.06853023
000240 64 da af bd 71 97 9a bc d2 e1 41 bd ff 7c 96 bd
       -0.085865766 -0.018871041 -0.0473345 -0.0734806
000250 2c 85 20 3b ff e3 2f bd 0a f1 b2 bc 2d 94 19 bd
       0.002449344 -0.042942043 -0.021843452 -0.037494827
000260 ad 3e 2c bd 80 af 9f 3c 83 f3 5a bd 56 df 5a 3d
       -0.04205196 0.019492865 -0.053454887 0.053435646
000270 39 cd c3 ba 87 2e 19 bd 27 50 54 bd f3 78 94 bd
       -0.001493848 -0.037397888 -0.05183425 -0.07249632
000280 4c b8 22 bd 49 05 05 bd 56 d8 85 3c 9b b1 96 bc
       -0.03972654 -0.032475743 0.016338509 -0.018395236
000290 cc cd 41 3d 5f 18 7a 3c e7 72 be bc e2 49 c6 3c
       0.047315404 0.0152646 -0.02324815 0.024205152
0002a0 cd 7e a1 bd ff 04 93 3b b6 18 f4 bb 67 54 8c bd
       -0.078855135 0.0044866796 -0.007449235 -0.06852036
0002b0 d5 3d 6a bd f3 16 81 bc 79 e3 8f bd a4 e5 12 bd
       -0.057187874 -0.015758013 -0.07025809 -0.035863534
0002c0 a1 49 ad 3c 13 6f 45 bd 85 31 86 3d 39 c0 7a 3c
       0.021153273 -0.04820163 0.06552414 0.0153046185
0002d0 dc 90 3e bd b4 92 5a bd 84 76 67 b9 79 b7 3d 3d
       -0.046524867 -0.053362563 -0.00022074027 0.04631755
0002e0 9b 02 fe bc 66 bb 86 3c 5d c7 60 3c b3 d4 3b 3d
       -0.031007102 0.01644678 0.013719407 0.045857143
0002f0 95 37 16 3d ee 1a a7 bd 42 9c 0f bc e4 71 6a bc
       0.0366741 -0.08159433 -0.008765282 -0.01430938
000300 fd b8 f0 3c 23 8d 3c bd 4e 49 99 bd ed fe 20 bd
       0.029385084 -0.046033036 -0.07484685 -0.039305616
000310 e8 91 9e bd 06 2f a6 bc 0f 7c 7c bc 06 98 79 bc
       -0.07742673 -0.020286094 -0.015410437 -0.015233999
000320 56 8f 36 bd 4c ed 82 bd 34 7c 39 bd 69 ac 86 3c
       -0.04457029 -0.06392917 -0.045284465 0.016439633
000330 b1 61 9b 3c a3 36 e3 3c 58 69 8a bd b4 ed 96 bd
       0.018967481 0.027736014 -0.06758374 -0.07369557
000340 9a 35 b3 bc ef 1b 33 bd 05 2b 77 bd f5 36 6e bd
       -0.021876145 -0.04372781 -0.06034376 -0.05815788
000350 36 2c 36 bd ce 66 46 3d ea 31 cc bc 84 d3 8b bd
       -0.044475757 0.048437886 -0.024926145 -0.06827453
000360 5a 07 d1 3c 78 e0 d9 bc 6a 16 a8 3b 2b 88 a2 bc
       0.0255162 -0.026596293 0.005129625 -0.01984032
000370 7e fd 53 3b 44 2f ef bc 48 bb 2f bd dd 08 c8 bd
       0.0032347138 -0.029197343 -0.042903215 -0.097673155
000380 ea 39 0d 3c 95 4b 27 3d cc 7d 5d 3d 2f 86 c8 3a
       0.008619765 0.040843565 0.054075047 0.0015298779
000390 7f 74 2c 3c 41 47 10 bd 56 83 9e bb b1 59 14 bc
       0.010525822 -0.035224203 -0.004837434 -0.009054587
0003a0 be b7 af bd d1 7a d4 bc 01 f7 a7 bc 97 59 8e bd
       -0.08579968 -0.02593747 -0.020503523 -0.06950682
0003b0 d3 68 b9 bb 18 b4 3f bc ca 7d 8d 3c 7a 9a 93 bc
       -0.005658248 -0.011700653 0.017271895 -0.018017996
0003c0 17 60 97 bd fd 1e 00 bd c0 13 92 bc 59 de d2 3b
       -0.073913746 -0.031279553 -0.017831683 0.0064351973
0003d0 49 68 27 bd e0 7f 83 bd 26 31 91 bd 09 f8 87 bd
       -0.04087094 -0.064208746 -0.070894524 -0.06639106
0003e0 5f d7 96 bd 22 72 87 bd 2d 70 e7 bc 4f db ab 3a
       -0.073652975 -0.06613566 -0.028251732 0.0013111624
0003f0 92 c7 18 bd 5e fd 8f 3c 36 d0 b2 bc 4e b3 57 bc
       -0.0372997 0.01757687 -0.021827798 -0.013165308

b3.bias f4 [64]
000000 b3 29 35 bd 62 8e 97 bd ee ca f6 bd 9b e3 27 be
       -0.04422922 -0.07400204 -0.120504245 -0.16395418
000010 7a ee e1 3d 03 c9 f0 bd 6f 8a 6c be 8e 93 79 bd
       0.11031814 -0.1175709 -0.23099683 -0.060931735
000020 e3 d2 0c be 4d 2a c1 3d 28 eb 15 be 55 8e b0 bd
       -0.13752322 0.09431896 -0.14640486 -0.08620898
000030 f7 08 11 be d7 bf b4 bd cf d6 55 bd 44 dc 91 3e
       -0.14163576 -0.08825653 -0.05220681 0.28488362
000040 db 10 29 be cf 93 94 be bc b3 12 3e b8 f9 c3 3d
       -0.16510336 -0.2901902 0.14326376 0.095691144
000050 4e 9d aa bd eb 62 c8 bd be 21 21 be 59 58 3c be
       -0.08330785 -0.09784492 -0.15735528 -0.18393077
000060 93 42 4a be 33 65 4f 3e 66 77 78 be 4c 64 d3 bd
       -0.19751959 0.20253448 -0.24264297 -0.103218645
000070 3c ee f7 bb 35 3d 80 3e 36 af 57 3b d7 39 97 bd
       -0.0075662415 0.25046697 0.003291083 -0.07384079
000080 0b 4f d3 be 55 16 20 be e5 59 c5 bd 9f 78 37 bc
       -0.41271242 -0.15633519 -0.09636287 -0.011198192
000090 8f 95 87 3e 51 f8 dc bd 5a bc 88 bd d1 14 8e be
       0.26481292 -0.1078955 -0.0667655 -0.27750257
0000a0 bb d0 62 3d ac 74 75 3d 0e 49 44 be 1b 73 0a be
       0.055374842 0.05992572 -0.19168493 -0.13520472
0000b0 32 99 f1 3e 73 cf 18 be 79 bd 77 3a b4 30 54 be
       0.4718719 -0.14922886 0.0009450536 -0.20721704
0000c0 df 68 8a be 43 a1 92 3e 44 f5 4d 3d b8 ec 72 3e
       -0.27033135 0.28638658 0.05028273 0.23723114
0000d0 ed 55 f1 bd e5 23 56 bd 2c 2e 1d 3e cc aa 1f 3d
       -0.11783967 -0.052280325 0.15349644 0.038981244
0000e0 3b 93 c6 3e 69 82 77 be e7 40 aa 3e 1d 14 12 be
       0.38784203 -0.24170841 0.33252642 -0.14265485
0000f0 71 55 25 3d 6e 6d 04 bc 68 98 f0 3d ad 1d 7c bd
       0.040364686 -0.008082731 0.11747819 -0.06155174
