nets/value1M.pth (torch, 649113 bytes, 25 tensors)

a1.weight f4 [16, 5, 3, 3]
0	0xbf9e8460	-1.2384148
1	0xbf8d74d7	-1.1051282
2	0x3f201ceb	0.62544125
3	0xbe429055	-0.19000371
4	0xbecffec3	-0.40624055
5	0x3f37545f	0.71613115
6	0xc02a039d	-2.6564705
7	0xbf1f22be	-0.6216239
8	0xbfc524bd	-1.5401837
9	0x3f126438	0.5718417
10	0xbee05799	-0.43816832
11	0xbf055165	-0.52077323
12	0xbfa03a1b	-1.2517732
13	0x3f8a0ea4	1.0785718
14	0xbe935a08	-0.28779626
15	0x40128071	2.2890894
16	0x3f56cf45	0.8391002
17	0x400ae7ff	2.17041
18	0x3e97a416	0.29617375
19	0x3fa4b6b0	1.2868252
20	0x3e27fdbb	0.16405384
21	0xbf3bd53e	-0.73372257
22	0x3e705cac	0.23472852
23	0xbe9d92a0	-0.30775928
24	0xbf3b4c29	-0.73163086
25	0xbeaf8646	-0.3428213
26	0x3f2b59e6	0.6693405
27	0x3ef859b2	0.48505932
28	0x3f1615ec	0.586272
29	0xbd8e48c2	-0.06947471
30	0x3fef0f34	1.8676515
31	0xbe170e78	-0.14751613
32	0xbdfba331	-0.12286986
33	0x3fa6c261	1.302807
34	0x3ed58ccd	0.41708985
35	0x3ed19013	0.40930232
36	0xbd11e9e8	-0.03562346
37	0x3da134be	0.07871388
38	0x3d1d81f3	0.038454007
39	0x3de979ba	0.114001706
40	0xbd205fc0	-0.039153814
41	0xbdd704c0	-0.10498953
42	0xbdd8d680	-0.10587788
43	0x3c86bb9e	0.016446885
44	0x3d6a69d8	0.057229847
45	0x3e1571ab	0.14594142
46	0xbf97eeef	-1.1869792
47	0x3f811086	1.0083168
48	0xbf859201	-1.0435182
49	0x400e204c	2.2207212
50	0xbed78e8f	-0.4210095
51	0x3f524f1b	0.82151955
52	0x3f9c86bd	1.2228619
53	0x3fd906ba	1.6955178
54	0xbeb8f9b9	-0.36128023
55	0xbf428bc7	-0.75994533
56	0x3e8e6871	0.27814057
57	0x3ea0d904	0.3141557
58	0xbe766b26	-0.24064311
59	0xbf2f7d29	-0.68550354
60	0x3f0e7847	0.5565228
61	0x3e07c8f4	0.13260251
62	0x3c8b8a82	0.01703382
63	0xbedcce3f	-0.43126103
64	0xbefa014d	-0.48829117
65	0x3ef3bbcd	0.47604218
66	0xbfd70a48	-1.6800013
67	0xbf8b53ba	-1.0884926
68	0x3d3012e1	0.042986754
69	0xbf6e1058	-0.9299369
70	0xbfa043ef	-1.2520732
71	0xc01ca57e	-2.4476008
72	0xbeb074ab	-0.3446401
73	0xbfaf6799	-1.370349
74	0x3f596565	0.8492034
75	0xbff7d771	-1.9362622
76	0x3f18802e	0.59570587
77	0xbe263bca	-0.16233745
78	0xbf7c1bba	-0.9847981
79	0xbd975321	-0.073889025
80	0x3e7d2307	0.24720393
81	0xbe655b20	-0.22398043
82	0xbd27eb5b	-0.040995937
83	0x3e289827	0.16464292
84	0xbb4846e5	-0.0030559835
85	0x3e7c8820	0.24661303
86	0xbdf00320	-0.11719346
87	0x3e1b6f40	0.15179157
88	0x3d8533a3	0.065039895
89	0xbe8b801c	-0.27246177
90	0x3fc6a89d	1.5520207
91	0xbf1bf284	-0.60916924
92	0xbf7c9d23	-0.9867727
93	0x3eea0d3a	0.45713216
94	0xbf649667	-0.89291996
95	0xc004b690	-2.0736427
96	0x3d49376a	0.049125113
97	0xbeb56e38	-0.35435653
98	0x3ec8506c	0.39123857
99	0xbf370620	-0.7149372
100	0x3f9a2af6	1.2044361
101	0xbead3ff6	-0.3383786
102	0xbe267141	-0.1625414
103	0x3f6d2d52	0.9264728
104	0x3fb2b294	1.3960748
105	0x3d4fc478	0.050724477
106	0x3e61360e	0.21993276
107	0xbfc348a6	-1.5256546
108	0xbfa3247a	-1.2745507
109	0xc0049546	-2.071611
110	0x3fd382f0	1.6524334
111	0xbe4f48f8	-0.20242679
112	0xbee96a2f	-0.45588824
113	0xbf9608a0	-1.1721382
114	0xbf0aa6d6	-0.5416082
115	0xbd701a4d	-0.058618832
116	0xbf134b29	-0.5753656
117	0xbf049f68	-0.51805735
118	0x3fc9210c	1.571321
119	0x3fa3032f	1.2735347
120	0x3f091d6d	0.53560525
121	0xbe11cd4e	-0.14238474
122	0x3f1353eb	0.57549924
123	0xbf144fd3	-0.579343
124	0x3f35a519	0.70955044
125	0x3f9d100c	1.2270522
126	0x3d3e38fc	0.046441063
127	0x3e320969	0.17386402
128	0xbe227749	-0.15865816
129	0xbd150997	-0.0363861
130	0x3cdec3cb	0.02719297
131	0x3e8363d8	0.25662112
132	0x3c2b35aa	0.010449806
133	0x3cd45873	0.025921082
134	0xbea59254	-0.32338202
135	0x3ff52eee	1.9154947
136	0xbf7172aa	-0.9431559
137	0xbdb9832b	-0.090582214
138	0xbfe48c45	-1.7855307
139	0xbf5b75e4	-0.8572676
140	0xbfe36f2c	-1.7768302
141	0xbff461dd	-1.9092366
142	0xbf91d978	-1.1394491
143	0xbfc9f6bb	-1.5778421
144	0xbfeb5a14	-1.8386865
145	0xbdb24e67	-0.0870636
146	0xbc93e8c1	-0.018055322
147	0x3ec61dc2	0.38694578
148	0x3e47aa4e	0.1949856
149	0x3f10007d	0.56250745
150	0xc0024b48	-2.0358448
151	0x3e5bdc72	0.21470812
152	0xbd9874d2	-0.07444157
153	0xbf3de5a2	-0.74178517
154	0x3fb9dc52	1.4520361
155	0x3dcfb086	0.10141091
156	0xbe124f3e	-0.14288041
157	0xbe2b1e5f	-0.16710804
158	0xbd90cbdc	-0.07070133
159	0xbf56c821	-0.8389912
160	0x3fcd6a92	1.6048148
161	0x3fb2f7e4	1.39819
162	0x3eb35225	0.3502361
163	0xbf157150	-0.58376026
164	0xbf1a7f22	-0.6035024
165	0x3fdee0fd	1.7412411
166	0x3f818585	1.0118872
167	0x3f75d4d8	0.960279
168	0x4008486d	2.1294205
169	0x3e272392	0.16322163
170	0xbf5e4b92	-0.8683406
171	0x3da6176d	0.08109937
172	0x3dacd428	0.08438903
173	0xbe31b869	-0.17355503
174	0xbb7151b3	-0.0036822378
175	0x3d739533	0.05946846
176	0x3e2887ae	0.16458008
177	0xbda9ba2b	-0.08287462
178	0xbd15b120	-0.036545873
179	0xbd96917c	-0.07351968
180	0xbf005a2b	-0.50137585
181	0x3f53d82d	0.82751733
182	0xbe2644f8	-0.16237247
183	0xbf516293	-0.8179104
184	0xbf13819a	-0.5761963
185	0x3f5286c5	0.8223689
186	0xbf7b6c58	-0.98212194
187	0x3e5a12c0	0.21296215
188	0xbdd9a2c5	-0.10626749
189	0x3f8010c8	1.0005121
190	0xc04d812b	-3.2110088
191	0x3f065309	0.5247045
192	0x3f8486fb	1.0353693
193	0x400c985a	2.1967988
194	0x3f829000	1.0200195
195	0xbf29afb9	-0.66283756
196	0x3e6153fc	0.22004694
197	0xbeb219c7	-0.34785292
198	0xbe98f546	-0.2987463
199	0x3f8c51f9	1.0962516
200	0x3db06921	0.08613802
201	0x3f8d8bcb	1.1058286
202	0xbfc1fb07	-1.5154732
203	0x3f85c33f	1.0450209
204	0xbde839f7	-0.11339181
205	0xbe8d78e0	-0.27631283
206	0x3eee2c91	0.46518376
207	0xbf82b8f5	-1.0212694
208	0x3f8393e6	1.027951
209	0x3f105b36	0.56389177
210	0xbeb28f6d	-0.3487505
211	0xc0399f16	-2.9003348
212	0xc000945f	-2.0090559
213	0xbd98b4de	-0.07456373
214	0xbce747c9	-0.028232472
215	0xbe66b274	-0.22529012
216	0xbdb80614	-0.08985534
217	0x3e849156	0.25892133
218	0xbe926818	-0.28595042
219	0x3e0ec422	0.13942006
220	0xbb1e25da	-0.0024131448
221	0xbd5fa781	-0.054603104
222	0xbe376800	-0.17910767
223	0x3d65ef1f	0.056136247
224	0x3e014eb8	0.12627685
225	0xbf301542	-0.68782437
226	0xbeb713c7	-0.35757276
227	0xbf731ef7	-0.94969124
228	0xbf698a0e	-0.9122628
229	0xbf6fa1c0	-0.93606186
230	0x4002eaf8	2.0455914
231	0x3f0b2248	0.54349184
232	0xbccd007d	-0.025024647
233	0xbe84601c	-0.25854576
234	0xbf413028	-0.75464106
235	0xbf54784c	-0.8299606
236	0xbdafb95f	-0.085802786
237	0xbf01ee00	-0.50753784
238	0xbf8fc0e9	-1.1230747
239	0xbfdbce57	-1.7172345
240	0x3d6e48c0	0.05817485
241	0xc03a0578	-2.9065838
242	0xbf06cf1b	-0.5265977
243	0x3ddd140f	0.107948415
244	0x3ea61f8b	0.3244594
245	0xbef25d04	-0.4733659
246	0xbf2d53fe	-0.67706287
247	0xbf63d00f	-0.8898935
248	0xc0358cfb	-2.8367298
249	0xbf576e08	-0.8415227
250	0xc03ea10b	-2.9785793
251	0xbf10c30f	-0.56547636
252	0x3dcc3a4b	0.09972056
253	0xbf55218f	-0.8325433
254	0x3f4b65e4	0.7945235
255	0xbba6b77f	-0.0050877924

a1.bias f4 [16]
0	0xbea78b54	-0.32723486
1	0xbf24e9af	-0.6441907
2	0xbf85c465	-1.045056
3	0xbef3c90e	-0.4761433
4	0xbf316f17	-0.69310135
5	0x3e9e51de	0.30921835
6	0xbef30976	-0.47468156
7	0xbfdaf463	-1.7105831
8	0x3e30e2a9	0.17273964
9	0xbef54027	-0.47900507
10	0xbf8612fb	-1.0474542
11	0xbeea088f	-0.45709655
12	0xbe22db9c	-0.15904087
13	0xbf0dd7e7	-0.55407566
14	0xbee0fb12	-0.4394155
15	0xbf9c38e2	-1.2204859

a2.weight f4 [16, 16, 3, 3]
0	0xbea190be	-0.31555742
1	0xbed8c7a9	-0.4233983
2	0xbcc374e8	-0.023859456
3	0xbe809738	-0.2511537
4	0x3f883c59	1.0643417
5	0x3f757395	0.9587949
6	0xbef0517d	-0.4693717
7	0x3bde1a1f	0.006778016
8	0x400c916c	2.1963758
9	0x3fed2be1	1.8529016
10	0x3f1c7846	0.6112102
11	0xbf9ccd16	-1.2250087
12	0x3f8c0746	1.093972
13	0x3dc46022	0.095886484
14	0xbf10141a	-0.5628067
15	0xbeeaafa9	-0.45837143
16	0xc004a4b1	-2.072552
17	0xbecf00ca	-0.4043029
18	0xbef12cd5	-0.47104517
19	0xbf866dd7	-1.050227
20	0xbeab7b65	-0.3349258
21	0x3e155feb	0.14587371
22	0xbf6fcc8e	-0.936715
23	0x3e9b8d1f	0.30381104
24	0x3debef04	0.11520198
25	0x3ebc4268	0.36769414
26	0xbe9403a1	-0.2890902
27	0xbfa6bfb8	-1.3027258
28	0x3faa97b1	1.3327543
29	0x3f6917e4	0.9105208
30	0x3fe837a8	1.8141985
31	0xbf819dca	-1.0126278
32	0x3fcaff45	1.5859152
33	0xbf9704eb	-1.1798376
34	0xbf57548b	-0.8411338
35	0x3f60a2d0	0.8774843
36	0xbf066b0b	-0.52507085
37	0xbe160b2f	-0.14652704
38	0x3f281a03	0.6566469
39	0x3f1ededc	0.62058806
40	0xbf41a819	-0.7564712
41	0x3e9b8ce1	0.3038092
42	0x3f68bb50	0.90910816
43	0xbfd0ffef	-1.6328105
44	0x3eed79e8	0.4638207
45	0xbea17563	-0.3153487
46	0x3fd11f56	1.6337688
47	0xbf4aa60c	-0.7915962
48	0xbf697fc8	-0.91210604
49	0x3f82ad2b	1.0209097
50	0xc02af863	-2.6714103
51	0xbfe029e5	-1.7512785
52	0x3f033a9d	0.5126131
53	0xbe63c383	-0.2224255
54	0xbee54dfb	-0.44786057
55	0x3ef123cc	0.47097623
56	0x3f1e61eb	0.6186816
57	0xbb6707c0	-0.0035252422
58	0xbeaa9ce1	-0.33322814
59	0xbf7c795d	-0.98622686
60	0x3ecd5dab	0.40110525
61	0xbf1f0599	-0.62117916
62	0xbff09862	-1.8796504
63	0xbf653063	-0.8952696
64	0x3e036d52	0.12834671
65	0xbfff4806	-1.9943855
66	0x3fcb6baf	1.5892237
67	0x3f5793a8	0.8420968
68	0xbf075aaf	-0.5287275
69	0xbf2c55ec	-0.67318606
70	0x3f1e7772	0.6190101
71	0x40133f22	2.3007283
72	0xbd9af47c	-0.07566163
73	0x3fd0a761	1.630108
74	0x3f6d3bd3	0.9266941
75	0x3f8f609d	1.1201359
76	0xbf3b0414	-0.730531
77	0xbe6488c0	-0.22317791
78	0x3ec825d5	0.39091364
79	0x400ec55e	2.2307963
80	0x3e9c538b	0.30532488
81	0xc051b89e	-3.2768931
82	0xbfc0fc3d	-1.5076977
83	0xbe96f526	-0.29483908
84	0xbdd51294	-0.10403934
85	0x3ec3cd29	0.38242462
86	0xbfe2e2a2	-1.7725413
87	0xbfaa618c	-1.3311019
88	0x3e5cdd14	0.2156871
89	0xbd127a07	-0.035760906
90	0x3eb0f788	0.3456385
91	0xc02d6f3c	-2.7099142
92	0xbcd1097a	-0.025517214
93	0xbde96c43	-0.113976024
94	0xbfc4b833	-1.5368713
95	0xbf225053	-0.63403815
96	0x3e9389ee	0.2881617
97	0x3f93c7c8	1.1545343
98	0x3ebd5f2b	0.3698667
99	0xbe504d6a	-0.20342031
100	0x3deb2926	0.11482458
101	0xbfa721ed	-1.3057228
102	0xbf8c47bf	-1.0959395
103	0x3ea03bc4	0.31295598
104	0xbf9a9ead	-1.2079674
105	0xbfbbe44f	-1.4679049
106	0x3d6cbaf8	0.057795495
107	0xbf69c61e	-0.9131793
108	0xbdd06374	-0.10175219
109	0x3e8164a4	0.25272095
110	0x3f59ab1c	0.8502672
111	0x3f81c790	1.0139027
112	0x3c0ffb59	0.008787953
113	0x3dea3350	0.11435568
114	0x3f71f125	0.9450858
115	0x3cab68e0	0.020924032
116	0x3e5b0da7	0.21391927
117	0xbfa4e7e4	-1.2883267
118	0xbe9284ef	-0.28617045
119	0xbf66c69b	-0.901468
120	0xc07ff400	-3.9992676
121	0x3f4cb88a	0.79969084
122	0xbfe1685c	-1.7609973
123	0xbf4a4a58	-0.7901969
124	0x3f0b7572	0.5447608
125	0xbf4f61d6	-0.8100866
126	0xbfdf7f40	-1.7460709
127	0x3f00d949	0.5033155
128	0xbed8add3	-0.42320117
129	0x3e3cc694	0.18435127
130	0x3f9f759b	1.2457765
131	0x3ebd2d10	0.36948442
132	0x3ecaaaa3	0.3958331
133	0xbf258eb7	-0.6467089
134	0xbeb620b4	-0.35571826
135	0x403e9b17	2.978216
136	0x3edde972	0.43342167
137	0x3f99bf0f	1.2011431
138	0x3f86477e	1.0490568
139	0x3f738489	0.9512411
140	0xbd1b811b	-0.03796492
141	0xc030a848	-2.760271
142	0xbe876f0e	-0.26451916
143	0x3e06d147	0.1316577
144	0xbe9901ec	-0.2988428
145	0xbdb7d90d	-0.08976946
146	0x3efde61e	0.49589628
147	0xbdcad7f3	-0.0990447
148	0xbf0cfb04	-0.5507052
149	0xbfb70082	-1.429703
150	0xbfbf311c	-1.4936862
151	0x3f4a2bbc	0.78972983
152	0xbd817a91	-0.06322206
153	0x3d1cee24	0.038313046
154	0xc02d820b	-2.7110622
155	0x3e283269	0.1642548
156	0xc063c1d4	-3.5587053
157	0x3edfbe9f	0.4370012
158	0x3f20fdc7	0.62887233
159	0xbfb60d24	-1.422276
160	0xc021fc8d	-2.5310395
161	0xbf408faf	-0.75219244
162	0xbf82b245	-1.0210654
163	0x3fa5484e	1.2912691
164	0xbb3ad7a3	-0.0028509877
165	0xbf972a5b	-1.1809801
166	0x3fa9e4c5	1.327294
167	0x3f3ae625	0.7300742
168	0x3f3471bb	0.7048604
169	0xbea70454	-0.3262049
170	0xbef15dac	-0.47141778
171	0xbf147083	-0.5798418
172	0x3e3d4862	0.18484643
173	0x3ed7ae6a	0.42125255
174	0xbdff79f3	-0.12474432
175	0x3f9eca6a	1.2405522
176	0xbeffc97a	-0.49958402
177	0x3e573503	0.21016316
178	0xbea914f2	-0.33023793
179	0xbe03efc9	-0.1288444
180	0x3f81df35	1.0146242
181	0xbe8f4d24	-0.2798854
182	0xbf86ddc8	-1.0536432
183	0x3e8549ff	0.26033017
184	0xbfa522b1	-1.2901212
185	0xbf8e48f4	-1.1116014
186	0xbfd90f4c	-1.6957793
187	0x3dfe19f1	0.12407292
188	0x3e9e0879	0.3086584
189	0xbf4d6129	-0.8022638
190	0xbf8f21c4	-1.118218
191	0x3fd4fff1	1.6640607
192	0x3f462ea7	0.77414936
193	0x3ec8cd24	0.3921901
194	0xbf8288b5	-1.019797
195	0x3f80763b	1.0036081
196	0xbe8da6ef	-0.27666423
197	0xbfe243d4	-1.767695
198	0x3fbf57a5	1.4948622
199	0x3eb729fb	0.35774216
200	0x3e85fef0	0.26171064
201	0x3f898f17	1.0746793
202	0xbf2fa7a3	-0.6861517
203	0x3dfa965e	0.122357115
204	0xbc0037d5	-0.007825811
205	0x39eb065f	0.0004482744
206	0xbe348ccf	-0.17631839
207	0xbe489fe6	-0.19592246
208	0x3f2fc658	0.68662024
209	0x3ea8a3ab	0.3293737
210	0x3efa1ec2	0.4885159
211	0x3edeb991	0.4350095
212	0xbfd56ed5	-1.6674448
213	0x3f07629e	0.5288485
214	0x3f763c01	0.9618531
215	0x3ef277fc	0.47357166
216	0x3e592361	0.21204902
217	0x3ef6c7ce	0.48199314
218	0x3e9c3a34	0.30513155
219	0xbf42536f	-0.7590856
220	0x3fb1b312	1.3882773
221	0xbe09f755	-0.13473256
222	0xbf1c9fec	-0.6118152
223	0xbece484b	-0.4028953
224	0xbca1c02a	-0.019744951
225	0x3f6cdd82	0.92525494
226	0x3f36b356	0.71367395
227	0xbec857e9	-0.3912957
228	0x3e8b37ac	0.27190912
229	0xbe6c5b40	-0.23081684
230	0xbe980140	-0.29688454
231	0xbe6b98bb	-0.23007481
232	0xbdcc15de	-0.09965108
233	0xbecb03c0	-0.396513
234	0xbe86c2df	-0.2632055
235	0x3f11bd16	0.5692915
236	0xbfc1fcd2	-1.515528
237	0x3ecd1dec	0.4006189
238	0xbf802ce9	-1.0013705
239	0xbe539dc2	-0.20665649
240	0xbedce215	-0.43141237
241	0xbde24be0	-0.11049628
242	0xbfb04d13	-1.3773521
243	0x3f33aa5e	0.70181835
244	0xbf2dee44	-0.6794169
245	0x3f20bab7	0.62784904
246	0x3ba9fa6f	0.0051873247
247	0xbf221f5a	-0.6332909
248	0x3e8ab507	0.27091238
249	0x3f3ecbc9	0.745297
250	0xbfb610f3	-1.4223922
251	0xbf082a6a	-0.5318972
252	0xbb3087a9	-0.0026936329
253	0xbe8a7ff4	-0.27050745
254	0xbf34434f	-0.70415205
255	0xbc61d001	-0.013782502

a2.bias f4 [16]
0	0xbfb3c0cb	-1.4043211
1	0xbf900318	-1.1250944
2	0x3faac6f7	1.3341969
3	0x3e94c8c2	0.29059416
4	0xc01fea46	-2.498674
5	0xbe22f447	-0.15913497
6	0x3d5321d6	0.05154594
7	0xc06471c5	-3.569444
8	0xbe6ae1e8	-0.22937739
9	0xbdaee3ed	-0.08539567
10	0x3e52e35f	0.20594548
11	0xbed5ddba	-0.41770726
12	0xbfe752e0	-1.8072166
13	0xbe3a86af	-0.1821544
14	0xbf4fb138	-0.8112979
15	0x40a2d849	5.088902

a3.weight f4 [32, 16, 3, 3]
0	0xbcdf236b	-0.027238568
1	0xbda228b3	-0.07917919
2	0xbcdd6252	-0.027024422
3	0x3d05d9bd	0.032678355
4	0xbb2607fd	-0.0025334351
5	0xbd8c6f83	-0.06857207
6	0x3d38152b	0.044942062
7	0xbda52361	-0.080633886
8	0xbd2db043	-0.042404424
9	0xbd283aa0	-0.041071534
10	0x3c6324ca	0.013863752
11	0xbbb0e4e2	-0.0053983787
12	0xbd2e8f5d	-0.04261719
13	0x3c27deaf	0.010245963
14	0xbd39b5d0	-0.045339406
15	0x3cb19122	0.02167565
16	0xbd180e7d	-0.037123192
17	0xbb006785	-0.0019592952
18	0xbc4ce5cd	-0.012505961
19	0xbcfd86f4	-0.03094814
20	0x3d624de4	0.055250064
21	0xbdb35cb0	-0.08757913
22	0x3d6083ba	0.054813124
23	0xbd9d1e73	-0.07671823
24	0x3c1bab8a	0.009501347
25	0x3ab3e68e	0.0013725327
26	0xbcdf0325	-0.02722318
27	0xbda7c1e0	-0.081912756
28	0xbb126621	-0.0022338706
29	0xbc00301a	-0.007823968
30	0xbd2c8f3f	-0.042128798
31	0xbdbc14c1	-0.09183646
32	0x3c221ff9	0.009895318
33	0xbd74c4a7	-0.059757855
34	0xbde5cda7	-0.11220866
35	0xbddd8df8	-0.10818094
36	0x3bd902a8	0.006622631
37	0xbd927a83	-0.071522735
38	0x3c56fef5	0.01312231
39	0xbd05cdb9	-0.032666896
40	0x3c7f7d79	0.01559388
41	0x39bbacc8	0.00035796151
42	0x3c8e8689	0.017398136
43	0xbd8d63bb	-0.06903788
44	0xbd468360	-0.048465133
45	0xbda4bab5	-0.08043424
46	0xbd066740	-0.03281331
47	0xbdc455a4	-0.09586647
48	0xbd7148ed	-0.058907438
49	0xbcb8cdf7	-0.02255915
50	0x3d15a9f6	0.03653904
51	0xbe01b1d8	-0.12665498
52	0xbd0f5a99	-0.03499851
53	0xbdffd485	-0.12491707
54	0xbd4ba82f	-0.04972094
55	0xbb4bcaf1	-0.0031096304
56	0x3ccd61c9	0.025071042
57	0x3a2a7e64	0.0006503819
58	0x3c20cd74	0.009814609
59	0xbc0e445d	-0.008683291
60	0x3b66df50	0.003522832
61	0xbcaba91d	-0.020954663
62	0xbd86bd84	-0.06579116
63	0x3c8cd40d	0.017190957
64	0xbda9ff31	-0.08300627
65	0xbdfc41c2	-0.1231723
66	0x3d1d8a51	0.038461987
67	0xbd458b54	-0.048228577
68	0x3d51c20b	0.051210444
69	0xbd7c8713	-0.061652254
70	0xbb94e5e3	-0.004544006
71	0x3d8b1712	0.0679151
72	0xbbf0d767	-0.0073498967
73	0xbdb17cf4	-0.08666411
74	0x3d12ee15	0.035871584
75	0xbd6f26ce	-0.058386616
76	0x3d4f982e	0.05068224
77	0xbcca042e	-0.024660196
78	0x3d8c2f09	0.06844909
79	0xbd91c761	-0.07118107
80	0xbcc20986	-0.023686182
81	0x3d84c060	0.06482005
82	0x3d909b17	0.07060831
83	0x3ce24d52	0.02762476
84	0xbb273a97	-0.00255171
85	0x3d8d4911	0.06898702
86	0xbd9ba69e	-0.07600139
87	0xbcfa205c	-0.030533008
88	0xbcb6ce61	-0.022315206
89	0x3d048182	0.03235007
90	0x3d1c79b6	0.03820201
91	0xbd91f091	-0.071259625
92	0x3cc1c22f	0.023652164
93	0xbd795f1d	-0.060881723
94	0xbcb76db5	-0.02239118
95	0xbdcd5087	-0.10025125
96	0xbd2bbb0c	-0.04192643
97	0x3cbd85d6	0.023135107
98	0xba8ac319	-0.0010586708
99	0xbc00baa3	-0.007856998
100	0xbcf2c5a7	-0.029635264
101	0xbca8e09a	-0.02061491
102	0xbd82b559	-0.063822456
103	0x3c9733c7	0.018457307
104	0x3beacfd1	0.007165887
105	0xbd991d4f	-0.07476293
106	0x3d49a485	0.049229164
107	0x3ba1bb5a	0.004935664
108	0xbdc9a2e2	-0.098455206
109	0xbe0482ff	-0.12940596
110	0xbd6651fa	-0.056230523
111	0xbde635fe	-0.11240767
112	0xbdca3f55	-0.09875361
113	0xbd930eec	-0.071805805
114	0xbcb1c13f	-0.021698592
115	0xbe0e65eb	-0.13906066
116	0xbdd2cccb	-0.102929674
117	0xbda3ce33	-0.07998314
118	0x3d925fdc	0.0714719
119	0xbbca93af	-0.006182156
120	0xbc4b446c	-0.01240645
121	0x3d0aeda6	0.033918045
122	0xbd72b318	-0.05925283
123	0xbb870888	-0.00412089
124	0x3d102f95	0.035201628
125	0x3d835072	0.06411828
126	0x3d2241a3	0.039613377
127	0xbde714bd	-0.112832524
128	0xbdda62a9	-0.10663349
129	0xbdaa976a	-0.08329661
130	0xbdd8175a	-0.10551329
131	0xbb26136a	-0.0025341162
132	0xbd897c1a	-0.067131236
133	0xbbed742c	-0.007246515
134	0xbd2ef0a0	-0.042709947
135	0xbdcd8012	-0.10034193
136	0xbd8ca902	-0.06868173
137	0xbd27975d	-0.040915836
138	0xbbfdc52a	-0.007744451
139	0xbd603668	-0.054739386
140	0xbd11d3a1	-0.035602216
141	0x3cce7511	0.025202306
142	0xbd07bd06	-0.03313925
143	0xbdc51c69	-0.096245594
144	0xbfa36f71	-1.2768384
145	0xbe9492f2	-0.2901836
146	0x3f1845cc	0.594815
147	0xbf480c5c	-0.7814386
148	0xbf354662	-0.7081052
149	0xbf3fc20d	-0.74905473
150	0x3f37ef38	0.71849394
151	0xbfc1ab36	-1.5130374
152	0xbffb968d	-1.965532
153	0x3f837efc	1.0273128
154	0xbe7516be	-0.23934457
155	0x3e9669a1	0.29377463
156	0x3edcf896	0.43158406
157	0x3fba074c	1.4533477
158	0x3dc79987	0.0974608
159	0x3e8701a6	0.26368445
160	0x3e95fb66	0.29293364
161	0xbeb46a86	-0.3523752
162	0xbf5a0ec6	-0.8517879
163	0xbf872e93	-1.0561088
164	0xbebcefcd	-0.36901703
165	0xbf11cc10	-0.56952
166	0xbf395f46	-0.72411
167	0x3c25188b	0.010076652
168	0x3d6492a2	0.055803902
169	0x3e1040b0	0.14087176
170	0x3f4425b7	0.7662005
171	0x3fcb16f3	1.5866379
172	0x3f636a2e	0.8883389
173	0x3fbb81c3	1.4648975
174	0xbfa4e0ed	-1.2881142
175	0x3ec8c46b	0.39212355
176	0x3f79d6bc	0.97593284
177	0x3f8aa383	1.083115
178	0xbd307cf2	-0.043087907
179	0xbe382180	-0.17981529
180	0x3f75dbb4	0.96038365
181	0x3dd8ac6d	0.105797626
182	0xbe4b3503	-0.19844441
183	0xbe95afcf	-0.29235694
184	0x3e9af22e	0.30262893
185	0xbe0ea9f9	-0.13932027
186	0x3f97bfc9	1.1855403
187	0xbffd4dbd	-1.9789349
188	0xbf7de2a3	-0.99173945
189	0xbf590c3e	-0.84784305
190	0xbf0d860c	-0.55282664
191	0xbfa339ec	-1.2752051
192	0x3e3b6d46	0.18303403
193	0x3f3d164d	0.73862153
194	0xbda8768c	-0.08225736
195	0xbfdf549d	-1.7447697
196	0x3f2cb664	0.67465806
197	0x3ed4265a	0.4143551
198	0xbf197a6f	-0.59952444
199	0x3bf74d72	0.007547074
200	0xbf42af5c	-0.7604883
201	0xbfb530b4	-1.4155488
202	0xbd1df6ff	-0.038565632
203	0xbeceda17	-0.40400764
204	0x3f705924	0.9388602
205	0x3f4a2822	0.7896749
206	0xbeb2a200	-0.3488922
207	0xbfae2b91	-1.3607045
208	0x3f469418	0.77569723
209	0xbeca970f	-0.39568374
210	0x3f0c675e	0.54845226
211	0x3d0dd0ab	0.03462283
212	0xbfa1be52	-1.2636206
213	0xbf0d503f	-0.5520057
214	0xbf56cfc9	-0.83910805
215	0x3e6d49d8	0.231727
216	0x3d40b39f	0.0470463
217	0xbd5941b4	-0.053041175
218	0xbb857a63	-0.0040734275
219	0x3ca496bf	0.020091413
220	0xbd9f2fc2	-0.07772781
221	0x3ca3f99e	0.020016488
222	0x3d2b266e	0.041784696
223	0x3c845371	0.01615307
224	0x3d0568d1	0.032570664
225	0x3d1ba487	0.037998702
226	0xbc1f38bc	-0.009718116
227	0xbc171cc2	-0.009223165
228	0x3db979c0	0.09056425
229	0xbc7a7f12	-0.015289085
230	0xbb7650f4	-0.0037584873
231	0xbdc8224d	-0.09772167
232	0x3d8c0323	0.06836536
233	0x3be668b3	0.007031524
234	0x3f59038a	0.84771025
235	0x3eaeb0ef	0.34119365
236	0xbf1cbb28	-0.6122308
237	0x3f6bcf33	0.92113036
238	0x3f4a3983	0.78994006
239	0x3f6758ba	0.9036976
240	0xbf33c23f	-0.7021827
241	0xbede6ff1	-0.4344478
242	0x3fab020b	1.3359998
243	0xbebb1950	-0.3654275
244	0xbfedd22a	-1.8579762
245	0xbea8baeb	-0.32955107
246	0xbedee398	-0.43533015
247	0x3f288b9b	0.6583802
248	0xbe8e5b3d	-0.27803984
249	0x3fe2f4b1	1.7730924
250	0x3f2619c7	0.64883083
251	0x3fa74192	1.3066885
252	0xbedb7de8	-0.42869496
253	0x3d861b76	0.065482065
254	0xbe13ca76	-0.14432701
255	0x3f78b565	0.97151786

a3.bias f4 [32]
0	0xbe0771e6	-0.13227043
1	0x4026772c	2.6010237
2	0xbf0def53	-0.55443305
3	0xbe46bb1f	-0.19407319
4	0xc0813771	-4.0380177
5	0xc09bf8b3	-4.874109
6	0xbe03ff6c	-0.12890404
7	0x3f8ecf5e	1.1157033
8	0x409a211d	4.816542
9	0xbe19c9aa	-0.15018335
10	0x3e740f59	0.2383398
11	0xbdbe98a2	-0.09306456
12	0x410f9fde	8.97653
13	0xbe3a90c0	-0.1821928
14	0xc0773bc9	-3.863024
15	0xbd1f9610	-0.03896147
16	0xc0134d31	-2.3015864
17	0x3fa440cf	1.2832278
18	0xbe10bc26	-0.14134273
19	0xbe0b55ee	-0.13606998
20	0xbea8eeca	-0.32994682
21	0x40c53fc9	6.1640363
22	0xc05b77b8	-3.429182
23	0xbdfb5bb1	-0.12273348
24	0x40b02cf8	5.5054893
25	0x40b00438	5.500515
26	0x41064335	8.391408
27	0xbdf49fba	-0.11944528
28	0x3f4eddee	0.8080739
29	0xc0abb77f	-5.3661494
30	0xbea583a5	-0.32327
31	0x3f4d6458	0.8023124

b1.weight f4 [32, 32, 3, 3]
0	0x3d2cdaea	0.04220096
1	0x3c864d46	0.016394269
2	0x3c442346	0.0119713005
3	0xbd63e46d	-0.055637766
4	0x3c8e851b	0.017397454
5	0xbd42bd07	-0.04754355
6	0xbd2c848b	-0.04211859
7	0xbccb8664	-0.024844356
8	0xbd02ba47	-0.03191593
9	0xbeda2f5d	-0.4261426
10	0xbec7c401	-0.39016727
11	0xbe4aa519	-0.19789542
12	0xbf155735	-0.5833619
13	0xbea27f0a	-0.31737548
14	0x3ed4ca1a	0.4156044
15	0x3edb5d52	0.42844635
16	0x3e1c337c	0.15254015
17	0x3fae9482	1.3639071
18	0xbf5d87ee	-0.8653554
19	0x40033a98	2.0504513
20	0xbf98bf4a	-1.1933377
21	0x3fc5daf3	1.5457443
22	0x3fbabbc8	1.4588556
23	0xbe5b8b30	-0.21439815
24	0x3f4fd1b8	0.8117938
25	0xbe0b6550	-0.13612866
26	0xbf171589	-0.59017235
27	0x3f068a48	0.5255475
28	0x3f20dfa7	0.62841266
29	0x3f4fd1e0	0.8117962
30	0x3f48146c	0.7815616
31	0xbec7a0a9	-0.3898976
32	0x3e66e54d	0.22548409
33	0xbe2d85ed	-0.1694562
34	0xbc0dfb61	-0.00866589
35	0xbe2e32c1	-0.17011549
36	0xbfdfea8f	-1.7493457
37	0x3e264719	0.16238059
38	0x3faa9e5d	1.3329579
39	0x3edc8382	0.43069082
40	0x3ef3efd1	0.47643903
41	0xbf6a6b7a	-0.91570246
42	0xbe114db8	-0.14189804
43	0x3f25bb83	0.64739245
44	0x3f6f5343	0.9348642
45	0xc02d048d	-2.7034028
46	0x3fbb1955	1.4617106
47	0x3f938029	1.1523486
48	0x3f877c43	1.0584797
49	0xbe8f0f17	-0.279412
50	0xbd029e21	-0.031889085
51	0xbfb5a526	-1.4191024
52	0x3edfcb34	0.4370972
53	0x3e9a95a0	0.3019228
54	0x3d16c0f3	0.036805104
55	0x3b4e52b6	0.0031482405
56	0x3dbb3d1a	0.091425136
57	0xbc9c652a	-0.019091208
58	0x3d90bd22	0.07067324
59	0xbcb4cbd8	-0.022069857
60	0x3caf9426	0.021432947
61	0xbcf04e3e	-0.029334184
62	0x3c8924d9	0.016741203
63	0x3ea1a15e	0.31568426
64	0x3fb58c1e	1.4183385
65	0xc0070eaa	-2.11027
66	0x3f5909d6	0.84780633
67	0xbe646077	-0.22302423
68	0x3f9aea25	1.2102705
69	0xbece674f	-0.40313193
70	0xbf70c587	-0.940514
71	0x3e74341a	0.23848
72	0xbfffc01f	-1.9980506
73	0x3e45d6c8	0.19320214
74	0xc03826f7	-2.8773782
75	0x3f180bd8	0.5939307
76	0x3f851a11	1.039858
77	0xbf5b84d4	-0.85749555
78	0xbf06f8f3	-0.52723616
79	0xbec3a95c	-0.38215148
80	0x3f5e73e7	0.868956
81	0xbd60f137	-0.05491754
82	0xbca8e9a7	-0.020619227
83	0xbda89e60	-0.08233333
84	0x3c5b41b1	0.013382361
85	0xbd049c83	-0.032375824
86	0x3d70a78c	0.058753535
87	0xbb0a6c09	-0.0021121523
88	0xbbc76860	-0.0060854405
89	0x3d85628c	0.06512937
90	0x3f54e566	0.83162534
91	0xbef75323	-0.48305616
92	0xbfa73eb1	-1.3066007
93	0x400c97b9	2.1967604
94	0x3ea05b21	0.31319526
95	0xbe85782a	-0.2606824
96	0x3fb23417	1.3922147
97	0xbf07c8d1	-0.53040797
98	0x3e5ff1a8	0.21869528
99	0x3ce15495	0.027506152
100	0x3c2705c7	0.0101942485
101	0xbc2608b9	-0.010133916
102	0xbb91a24f	-0.0044443975
103	0x3c8b5c5f	0.01701182
104	0xbcb06b03	-0.021535402
105	0xbd5496c5	-0.051901598
106	0xbc7fb5ea	-0.015607337
107	0x3d023cfc	0.03179644
108	0xbf1d0888	-0.6134114
109	0x3f98966b	1.1920904
110	0xc0026e10	-2.0379677
111	0xbf97f14e	-1.1870515
112	0x3f9fcb50	1.2483921
113	0x3f3059ce	0.6888703
114	0x3fcd3e88	1.6034708
115	0x3eb01446	0.34390467
116	0xbe0f9fe5	-0.14025839
117	0x3d13c9ca	0.036081113
118	0xbdf6da9f	-0.120534174
119	0xbd8ffc5e	-0.07030557
120	0xbd7062e6	-0.058688067
121	0x3c477b17	0.012175343
122	0x3d563c39	0.052303527
123	0xbd93e97b	-0.07222267
124	0xbc79adda	-0.015239203
125	0x3d0546d3	0.032538246
126	0xbef3e195	-0.47633043
127	0xbed47e41	-0.41502574
128	0xc00e0841	-2.2192538
129	0xbf861a0a	-1.0476696
130	0x3e1147b8	0.14187515
131	0x3e17af71	0.1481302
132	0x3f788b7d	0.9708784
133	0x3ec99c7b	0.39377198
134	0x3ebb521e	0.36586088
135	0x3d2369bd	0.03989576
136	0xbcb44c45	-0.022009024
137	0xbcf27711	-0.02959779
138	0xbc917846	-0.017757546
139	0xbaff5112	-0.0019479117
140	0xbcbfdb86	-0.023420107
141	0xb97aa84e	-0.00023904556
142	0x3cbe9c39	0.023267852
143	0x3ca24b77	0.019811375
144	0xbf8079ab	-1.003713
145	0x3f070ecb	0.5275695
146	0xbec573d0	-0.3856492
147	0x3fa7706a	1.3081181
148	0x3fa6d19f	1.3032721
149	0xbeb0762c	-0.34465158
150	0x3f7fa8c0	0.9986687
151	0x3f8800a1	1.0625192
152	0xbec4bdcc	-0.38426054
153	0x3fd2c8c6	1.6467521
154	0xbea16bb8	-0.31527495
155	0xc0129ce0	-2.290825
156	0x3f98cc3e	1.193733
157	0x3d756efd	0.0599203
158	0x3f03d7a0	0.5150089
159	0x4004893a	2.0708756
160	0xbf212147	-0.629414
161	0x3f544fdb	0.8293435
162	0xbcdb0f37	-0.026740653
163	0xbd045377	-0.03230616
164	0x3d417b2f	0.047236618
165	0x3d4aaa82	0.049479015
166	0x3d55f726	0.052237652
167	0x3d5e60cb	0.054291528
168	0x3d10ccca	0.035351552
169	0xbce53b50	-0.027982384
170	0x3d2f2d3a	0.04276774
171	0x39f4f6c1	0.00046723153
172	0xbd46b934	-0.048516467
173	0x3bf4187b	0.0074492074
174	0xbd2d4503	-0.042302143
175	0xbcfe610f	-0.03105214
176	0x3d297785	0.04137375
177	0xbca6d584	-0.020365484
178	0xbd70b8e9	-0.058770094
179	0x3c9008dc	0.01758235
180	0x3dbec230	0.09314382
181	0x3f5252e6	0.8215774
182	0x3efb37db	0.49066052
183	0x3f0565b0	0.5210829
184	0x3f058ea4	0.5217078
185	0x3fe1e0c5	1.7646719
186	0x3cdf893d	0.02728712
187	0x3f78d245	0.97195846
188	0xbda41ef6	-0.08013718
189	0xbf6c270c	-0.9224708
190	0xbf7e5340	-0.9934578
191	0xbfeef103	-1.8667301
192	0x3f292b57	0.66081756
193	0xbf57257d	-0.8404158
194	0xbfb88ccd	-1.4417969
195	0x3ed5e867	0.4177887
196	0x3f171223	0.5901205
197	0x3e02a9a3	0.12760024
198	0xbff8188e	-1.9382493
199	0x3eec8f3b	0.46203026
200	0xbf11d540	-0.5696602
201	0x3db4158a	0.08793171
202	0x3c314746	0.010820216
203	0xbf25fb8a	-0.64836943
204	0xbe99731d	-0.29970637
205	0xbedadd8a	-0.42747146
206	0xbf979d89	-1.1844951
207	0x3bf405f3	0.0074469983
208	0xbca8f117	-0.020622773
209	0xbd20bf00	-0.03924465
210	0x3d82c381	0.06384946
211	0xbca683ca	-0.020326514
212	0x3dba7425	0.09104184
213	0xbd9534ea	-0.07285483
214	0xbca32584	-0.01991535
215	0xbc8baec0	-0.0170511
216	0x3f11d912	0.5697185
217	0x3fad7aad	1.3553063
218	0xbefe45d6	-0.49662656
219	0xbb11e9eb	-0.002226467
220	0x3e9f9097	0.31165
221	0xbfeff853	-1.8747658
222	0x3fd5bb84	1.669785
223	0x3f84ee17	1.0385159
224	0x3ff9fa1c	1.9529452
225	0x3fb91c86	1.446183
226	0xbe0d8647	-0.13820754
227	0xbf01d106	-0.5070957
228	0x3e8680e3	0.26270208
229	0xbf3ac2e5	-0.72953635
230	0xbfb2ffe5	-1.3984343
231	0xc01f370f	-2.4877355
232	0x3e1d89dc	0.1538462
233	0xbf784f66	-0.9699615
234	0xbfad73de	-1.3550985
235	0xbff77766	-1.9333313
236	0xbfe57ff6	-1.7929676
237	0xbf016d3e	-0.50557315
238	0xbf5d46bd	-0.86436063
239	0xbec6170e	-0.38689464
240	0xbfcee98f	-1.6165026
241	0x3fe617b0	1.7975979
242	0x3f988370	1.1915112
243	0x3d014fbc	0.03157018
244	0x3c13dcc4	0.009024803
245	0xbca6141d	-0.020273263
246	0xbd830c8f	-0.0639888
247	0x3c1c4dc3	0.009540024
248	0xbc1afbb0	-0.009459421
249	0x3d85dc04	0.06536105
250	0xbc2bc554	-0.010484058
251	0x3cb9f22f	0.02269849
252	0xbe838c41	-0.25692943
253	0x3f64d084	0.8938067
254	0x3e298398	0.16554105
255	0xbe0d124b	-0.1377651

b1.bias f4 [32]
0	0x40464e02	3.0985112
1	0x3f5ef9bb	0.8709981
2	0xc09960d0	-4.793068
3	0xbf2cb7af	-0.6746778
4	0xbea0dd35	-0.31418768
5	0xbfae09aa	-1.3596699
6	0xbfbee2bc	-1.4912944
7	0xc028e27c	-2.6388235
8	0x411e08ad	9.877118
9	0x3fef15e0	1.8678551
10	0xbe27bb39	-0.16380014
11	0x3ff70d00	1.9300842
12	0x4051dd5d	3.279136
13	0x400146c8	2.0199451
14	0xbef5828b	-0.4795116
15	0x3faee956	1.3664958
16	0x4002f43a	2.0461564
17	0x3ea2b4f7	0.3177869
18	0x40eb6031	7.355492
19	0xc005fc4d	-2.0935242
20	0x3f1faf50	0.6237688
21	0x3fc6933e	1.5513685
22	0xc0457740	-3.0854034
23	0x3fe30ffb	1.7739252
24	0xc054956e	-3.3216205
25	0xbe252b26	-0.16129741
26	0xc0219588	-2.5247517
27	0x3f215261	0.63016325
28	0xbf132f77	-0.574943
29	0x4078f6f7	3.8900735
30	0x3f90745a	1.1285508
31	0x4049c434	3.1526003

b2.weight f4 [32, 32, 3, 3]
0	0x3e4dc9c8	0.20096505
1	0x3f60194f	0.8753862
2	0xbeb4bc91	-0.35300115
3	0x3f85d097	1.0454282
4	0xbe2f57c6	-0.17123327
5	0x3f32dba2	0.69866383
6	0x401f92d3	2.4933364
7	0xbf19a51f	-0.6001758
8	0xbf006db0	-0.5016737
9	0xbcd6e940	-0.02623427
10	0xbd9a6029	-0.07537872
11	0xbfd8b3d1	-1.6929876
12	0xbf06f874	-0.5272286
13	0xbb78ada6	-0.00379453
14	0x3ea3642f	0.31912372
15	0x3fba35ab	1.4547628
16	0x3f1e4839	0.61828953
17	0xbf012c95	-0.5045865
18	0x3fb6facd	1.4295288
19	0xc007a771	-2.1195948
20	0x3eb050fa	0.3443678
21	0x3ec30f7a	0.38097745
22	0xbf08257d	-0.531822
23	0x3fc4031b	1.5313448
24	0x3eb1dd61	0.3473921
25	0xbea86f57	-0.32897446
26	0x3fa2f388	1.273057
27	0xbf9f8255	-1.2461649
28	0x3f9751cb	1.1821836
29	0x3f876bfb	1.0579828
30	0xbed22169	-0.41041115
31	0xbea87013	-0.32898006
32	0x3fa5ad08	1.294343
33	0x40083573	2.1282623
34	0xbe1856d3	-0.14876871
35	0x3f5bd0a1	0.8586522
36	0xc05aaea7	-3.41691
37	0x3f5ab3aa	0.85430396
38	0xbf182108	-0.594254
39	0xbe67bf20	-0.22631502
40	0x3fa5a17c	1.2939906
41	0xbe19ebe6	-0.15031394
42	0xbfc98bcd	-1.5745789
43	0xbe004cb2	-0.12529257
44	0x3fa4ace1	1.2865258
45	0x3fbc589d	1.4714543
46	0xbf66a20d	-0.9009102
47	0xbe74d4d6	-0.23909315
48	0xbeff68dc	-0.4988469
49	0xbe9a8280	-0.3017769
50	0xbfe677ba	-1.8005288
51	0xbff2911c	-1.8950534
52	0xbc74800e	-0.014923109
53	0xbf9fbb24	-1.2478986
54	0xbf98a0ec	-1.192411
55	0x3e93ae86	0.28844088
56	0x3f874e53	1.0570778
57	0x3f70b3ae	0.9402417
58	0x3e8d80a8	0.2763722
59	0xbd33df35	-0.04391404
60	0xbfbdf960	-1.4841728
61	0x3fb6a62b	1.426946
62	0xbf043cd0	-0.5165529
63	0x3f0fd250	0.56180286
64	0xbf904c5f	-1.1273307
65	0xbfaa4729	-1.3302966
66	0x3f424efe	0.7590178
67	0xbf209137	-0.6272158
68	0xbedd3015	-0.43200746
69	0x3f87f152	1.062052
70	0x3e9bf637	0.30461285
71	0xbf14fc0b	-0.5819709
72	0x3f258a78	0.6466441
73	0x3ea391f3	0.31947288
74	0x3ddaf669	0.1069153
75	0xbfae16d8	-1.3600721
76	0xbeea8d82	-0.45811087
77	0xbf850b8f	-1.0394152
78	0x3f6ebc61	0.93256193
79	0xc05c846e	-3.4455829
80	0x3fa9d462	1.3267939
81	0x3fea1455	1.8287455
82	0xbea41342	-0.32045943
83	0xbfb891a9	-1.4419452
84	0xbdf57ace	-0.11986314
85	0xbe8e4f70	-0.2779498
86	0xbfa46b97	-1.2845334
87	0x3f9196c0	1.137413
88	0x3f929a33	1.1453308
89	0xbfd140df	-1.6347922
90	0xbc2b58cf	-0.010458185
91	0xbd05bd44	-0.0326512
92	0xbd2cfff6	-0.04223629
93	0xbca330c6	-0.019920718
94	0xbdc21c7b	-0.094780885
95	0x3d56d5a4	0.052449837
96	0x3d124901	0.035714153
97	0xbcc1b5dd	-0.02364629
98	0x3c10a90d	0.008829367
99	0x3ec386fb	0.3818892
100	0xbf8bb56a	-1.0914738
101	0xc02d52af	-2.7081716
102	0xbfc57528	-1.5426378
103	0xbfee9508	-1.8639231
104	0x3f0f0e4a	0.5588118
105	0x3cb024f6	0.021502
106	0xbf4292dd	-0.76005346
107	0xbf99a098	-1.2002134
108	0xbdf07b57	-0.11742275
109	0xbfaaf436	-1.3355777
110	0x3e96c9d4	0.29450858
111	0xbef14a37	-0.47126934
112	0xc020aafe	-2.5104365
113	0x3eb1c242	0.3471852
114	0xc0024cf0	-2.035946
115	0x3e4c5029	0.19952454
116	0x400dbb35	2.2145512
117	0x40187ccf	2.3826177
118	0x3c27d4ec	0.010243636
119	0x3f86f6d2	1.0544074
120	0x3e4a2bd8	0.19743288
121	0xbf7c4c3e	-0.98553836
122	0xbf808dfb	-1.0043329
123	0x3ea9ddb6	0.33176965
124	0x3f46535c	0.77470946
125	0xbf93758b	-1.1520246
126	0xbf3cf0b4	-0.73804784
127	0xbe9975f2	-0.29972798
128	0x3f95e355	1.1710001
129	0xbfb3139e	-1.3990362
130	0x3e1a92dc	0.15095085
131	0xbf75f33d	-0.9607428
132	0x3e8e2d2f	0.27768847
133	0xbfbdff3c	-1.4843516
134	0x3eb8f9fe	0.3612823
135	0xbf8da3e1	-1.1065637
136	0xbe83400e	-0.25634807
137	0x3f863a31	1.0486509
138	0xc00b83e2	-2.1799245
139	0x3f4655c7	0.77474636
140	0x3ec0b841	0.37640575
141	0xc0265032	-2.5986447
142	0xbfaa7db5	-1.3319613
143	0xc001b70c	-2.0267973
144	0x3f996816	1.198489
145	0x3f3c520b	0.7356269
146	0xbef4cef4	-0.47814143
147	0xbf1c6c73	-0.6110298
148	0x3ee96ae6	0.4558937
149	0x3eca3175	0.39490858
150	0xbf9d7e96	-1.2304256
151	0x3d998559	0.07496137
152	0x3fa03c77	1.2518452
153	0xbf011119	-0.50416714
154	0x3f8d4ec2	1.103966
155	0xbf81744e	-1.0113618
156	0xbcc91252	-0.024544869
157	0xbfb273b2	-1.3941557
158	0x3f5b00c4	0.85548043
159	0xc014a0e2	-2.3223195
160	0xbe8b539f	-0.27212235
161	0xbfab044f	-1.336069
162	0xbf947bb2	-1.1600249
163	0x3f04e4f6	0.51911867
164	0xbef06851	-0.46954587
165	0x3dc2cdba	0.095118955
166	0x3eb23b21	0.34810737
167	0x3f5e0b8f	0.86736387
168	0x3ecb42d0	0.3969941
169	0x3d94abd2	0.072593346
170	0xbe48574a	-0.19564548
171	0xbf62cb6e	-0.8859166
172	0x3f3fa268	0.7485719
173	0xc0051eee	-2.0800128
174	0xbf7934c3	-0.97346133
175	0x400b3e61	2.1756823
176	0xbf6b505a	-0.9191948
177	0x3fc60a38	1.5471869
178	0xbf0295f6	-0.5101007
179	0x3f8c2db0	1.0951443
180	0x3f1dc4ca	0.616284
181	0x3fa2cfa6	1.2719619
182	0x3ea15819	0.31512526
183	0xbfbe68b9	-1.4875709
184	0xbf0ba7f3	-0.54553145
185	0xbf85d96e	-1.0456979
186	0x3f5ecbd8	0.8702979
187	0xc0642919	-3.5650084
188	0x3f5be3c1	0.858944
189	0xbe30c7f7	-0.1726378
190	0x3fbc219f	1.469776
191	0xbfe0e3ae	-1.7569482
192	0x40005690	2.0052834
193	0xbe6999fd	-0.22812648
194	0xbe3cef4e	-0.18450662
195	0xbfc2b108	-1.5210276
196	0xbf8b3973	-1.0876907
197	0x3fffeff1	1.9995099
198	0xbe0eabaf	-0.1393268
199	0xbf82e92a	-1.0227406
200	0xbfc6da35	-1.5535342
201	0xbef90998	-0.48640132
202	0x3e911d7b	0.28342804
203	0x3ee480a4	0.44629395
204	0xbf5dbc27	-0.8661522
205	0xbe074cf1	-0.13212945
206	0x3ec9add1	0.39390424
207	0xbede8e22	-0.43467814
208	0xbf72e783	-0.9488451
209	0xbf8f7862	-1.1208613
210	0xbfdb2868	-1.7121706
211	0x3da28365	0.07935218
212	0xbfe6febb	-1.8046488
213	0x3e84092e	0.25788254
214	0x3dc8ba9a	0.098012164
215	0x3e15eebd	0.14641853
216	0xbfd21bf0	-1.6414776
217	0xbd42b659	-0.04753718
218	0x3d39151f	0.04518616
219	0x3f9db1ba	1.2319863
220	0x3ed09e6c	0.40745866
221	0x3ebb1eba	0.3654688
222	0x3f55889b	0.8341157
223	0xbf70dad0	-0.9408388
224	0xbc94177f	-0.01807761
225	0x3d011668	0.03151551
226	0x3cdaef9c	0.026725583
227	0x3d6e637e	0.058200352
228	0xbd694c13	-0.056957316
229	0x3d8bf0f8	0.068330705
230	0x3d0945a6	0.033513688
231	0xba7710d1	-0.0009424808
232	0x3d1399a8	0.03603521
233	0x3d27fa64	0.041010275
234	0xbfdb26ee	-1.7121255
235	0x3f42ed24	0.761431
236	0x3ffa0399	1.9532348
237	0xbe9849f0	-0.2974391
238	0xbefe98cf	-0.4972596
239	0xbf0313c1	-0.5120202
240	0x3f557146	0.83375967
241	0x3f702c91	0.93818
242	0xbfc7292c	-1.555944
243	0x3fac0eb4	1.3441987
244	0x3eb912d6	0.36147183
245	0xbee809df	-0.4532003
246	0xbfe68685	-1.8009802
247	0xbf1ce658	-0.61288977
248	0x4001e7fe	2.0297847
249	0xc0054941	-2.082596
250	0x3fc858cf	1.5652102
251	0x3f396f8e	0.72435844
252	0x3ec41307	0.38295767
253	0xbebdba6e	-0.37056297
254	0xbf5b21a7	-0.85598224
255	0xbfd0184b	-1.6257414

b2.bias f4 [32]
0	0xbfb87ce4	-1.4413114
1	0xbf30bcd7	-0.69038147
2	0x3fa99378	1.3248129
3	0xbe2b0706	-0.16701898
4	0xc049a1eb	-3.1505077
5	0xbfd8eed1	-1.6947881
6	0xbe8f5a3f	-0.2799854
7	0x3fa9f24e	1.327707
8	0xbfff2474	-1.9933
9	0xc010c77a	-2.262175
10	0x404f4f60	3.2392197
11	0x3fce64fb	1.6124567
12	0x3f83398f	1.025194
13	0x3f711ced	0.9418476
14	0xc08de7d3	-4.434549
15	0xc057597a	-3.3648362
16	0x3f1cfd31	0.6132384
17	0xbe39a096	-0.18127665
18	0xc08276c7	-4.076999
19	0x3ef96ec6	0.48717326
20	0xbe4cae60	-0.19988394
21	0xc0fd4d3f	-7.9156795
22	0xbf0ee71f	-0.5582141
23	0x406dc223	3.7149742
24	0x3ef6d3f6	0.48208588
25	0xc028b278	-2.6358929
26	0xbf087f76	-0.5331949
27	0xbdc15d9f	-0.09441685
28	0xbeb7f61b	-0.3592995
29	0x40c74ba9	6.227986
30	0xc0096dc6	-2.147325
31	0xc05d3236	-3.4561896

b3.weight f4 [64, 32, 3, 3]
0	0x3d050ba9	0.032481823
1	0xbd2f5f68	-0.042815596
2	0xbd8ce1d0	-0.06879008
3	0xbbd1f5d5	-0.0064074793
4	0xbd172f69	-0.03691045
5	0xbd4e18ab	-0.050316494
6	0x3d44cac2	0.048044927
7	0xbd479e05	-0.048734684
8	0x3c36aaef	0.011149152
9	0xbc8fc294	-0.017548837
10	0xbcc2557e	-0.023722406
11	0xbd9b4c3f	-0.07582902
12	0xbddd7840	-0.108139515
13	0xbcae0028	-0.021240309
14	0xbd41cf66	-0.04731693
15	0x3d15d420	0.03657925
16	0xbd3571c4	-0.04429795
17	0xbd09c615	-0.03363617
18	0xbd940a93	-0.07228579
19	0xbd97d02a	-0.07412751
20	0xbc352ab7	-0.011057547
21	0x3c28defd	0.010307071
22	0xbc9126f6	-0.017718773
23	0xbd8bda55	-0.06828753
24	0xbd2ecdff	-0.042676922
25	0xbd79bb01	-0.060969356
26	0xbd97b9ea	-0.07408507
27	0xbbe4e61e	-0.00698544
28	0x3cebb959	0.028774904
29	0x3d66db23	0.05636133
30	0xbd3c6e06	-0.046003364
31	0xbcb716de	-0.022349771
32	0xbc2e7443	-0.010647836
33	0x3d548e1e	0.051893346
34	0xbcdcac8a	-0.026937742
35	0xbc9b662e	-0.018969622
36	0x3caefe9a	0.021361638
37	0x3cc7944c	0.024362706
38	0x3d537214	0.051622465
39	0x3cb7c498	0.02243261
40	0x3d075735	0.03304215
41	0x3d193749	0.03740624
42	0xbd498ca2	-0.049206384
43	0xbd849914	-0.0647451
44	0xbd206e53	-0.039167713
45	0x3d573d58	0.052548736
46	0x3d557255	0.05211099
47	0xbd6c6eb2	-0.057722755
48	0xbce50c9d	-0.027960116
49	0xbcffdbd0	-0.031232744
50	0xbc75357c	-0.014966365
51	0x3d5faf43	0.054610502
52	0x3c8c0a3a	0.01709472
53	0xbd1e9f4d	-0.03872614
54	0xbd6ca870	-0.057777822
55	0x3c7546f7	0.014970533
56	0xbc9e98ac	-0.019359909
57	0xbd65cead	-0.056105305
58	0xbbd84be4	-0.0066008437
59	0xbd3e60b2	-0.046478935
60	0xbd442648	-0.04788807
61	0xbd68ae76	-0.056807004
62	0x3cb4b0d4	0.022056974
63	0x3d1d8a69	0.038462076
64	0x3bccee05	0.00625396
65	0xbd0bfd32	-0.034177013
66	0xbcee9214	-0.02912239
67	0xbd422589	-0.047399078
68	0xbd34dee1	-0.044157866
69	0xbd2f9f3e	-0.042876475
70	0xbd82ee13	-0.06393065
71	0xbd0aee67	-0.033918764
72	0x3d217b39	0.039424155
73	0xbd3bbab8	-0.045832366
74	0xbc450ce1	-0.012026996
75	0xbc316038	-0.010826163
76	0x3cf4fc83	0.029905563
77	0x3c72fc64	0.014830682
78	0xbd1bfda2	-0.03808368
79	0xbdac335a	-0.08408232
80	0xbcfa9fac	-0.030593716
81	0xbc4384f7	-0.011933557
82	0xbd03dc9c	-0.03219281
83	0xbd557bca	-0.052120008
84	0xb88f0ab4	-6.820765e-05
85	0xbd2b1c74	-0.041775182
86	0x3cc1e7d2	0.02367011
87	0x3d258da7	0.040418293
88	0x3b27acbf	0.0025585142
89	0xbceebf5d	-0.029143983
90	0xbd20e02d	-0.03927629
91	0xbd603f53	-0.05474789
92	0xbc836b01	-0.016042234
93	0xbd747b92	-0.05968816
94	0xbdff325f	-0.124607794
95	0xbd05bfe8	-0.03265372
96	0xbd6c0cd3	-0.057629418
97	0xbd30a2ff	-0.043124195
98	0xbd900bf9	-0.070335336
99	0xbb6837ba	-0.0035433606
100	0x39685a4b	0.00022158881
101	0xbd910c47	-0.0708242
102	0xbd17f94f	-0.037102994
103	0xbcb8b855	-0.022548834
104	0x3cfbdea8	0.03074582
105	0x3da2b710	0.07945073
106	0xbd185381	-0.03718901
107	0xbd0352d3	-0.03206141
108	0xbb43af37	-0.0029859075
109	0xbc851b01	-0.016248228
110	0x3d291260	0.04127729
111	0xbd2c21c5	-0.042024393
112	0xbd23833e	-0.039920084
113	0x3c8e3c59	0.01736276
114	0xbd68c462	-0.05682791
115	0xbcc0a947	-0.023518218
116	0xbd11060f	-0.03540617
117	0xbdaed0a8	-0.08535892
118	0xbc4d909d	-0.0125466855
119	0xbd85be27	-0.06530409
120	0xbcdce2eb	-0.026963672
121	0x3c752a57	0.014963708
122	0x3cc50c03	0.02405358
123	0xbd8563d5	-0.06513182
124	0x3d46dfae	0.04855316
125	0x3c619160	0.01376757
126	0x3d22331d	0.039599527
127	0x3c594987	0.013262159
128	0xbd495dbc	-0.049161658
129	0x3c8ad639	0.016947852
130	0x3c33def8	0.010978453
131	0x3d296ea1	0.04136527
132	0xbc2d58ee	-0.0105802845
133	0xbd47ca3a	-0.048776843
134	0xbc23d483	-0.009999397
135	0xbd2021db	-0.039094787
136	0x3c6674f4	0.01406597
137	0xbc7dade7	-0.015483356
138	0xbd288cd9	-0.041149948
139	0xbd3233aa	-0.043506302
140	0x3c60606f	0.013694867
141	0x3d4fdaa0	0.050745606
142	0xbb7f7f9d	-0.0038985976
143	0xbc8f554a	-0.017496724
144	0x3c0d4ec5	0.008624737
145	0x3d60f924	0.0549251
146	0xbc79e814	-0.015253086
147	0x3ccd1144	0.025032647
148	0xbb0770c7	-0.0020666586
149	0xbd55d831	-0.05220813
150	0x3ceb47b8	0.028720722
151	0xbcfa78ac	-0.030575119
152	0x3c90fab4	0.01769767
153	0xbd91386f	-0.07090842
154	0xbcf8b5ec	-0.030360185
155	0x3d08f761	0.033439044
156	0xbcbd40d1	-0.023102196
157	0xbd28fdb0	-0.04125756
158	0x3d2de2bf	0.04245257
159	0xbcf9e57a	-0.03050493
160	0x3d64d6dc	0.05586897
161	0x3d6b30bb	0.05741952
162	0xbdafae10	-0.08578122
163	0xbd37a7dd	-0.04483782
164	0xbd1cd7d6	-0.038291775
165	0xbb9a2188	-0.0047037043
166	0xbdeea24f	-0.11652052
167	0xbd148703	-0.03626157
168	0xbddec97d	-0.108782746
169	0xbb8c15de	-0.0042750677
170	0xbdb2a047	-0.08721977
171	0x3b43de9a	0.002988732
172	0x3b1bb8e1	0.002376132
173	0xbd98addc	-0.07455036
174	0x3c1328a1	0.008981855
175	0xbcaa9588	-0.020823255
176	0xbb9532ed	-0.00455319
177	0xbe018458	-0.12648141
178	0xbd56e23c	-0.052461848
179	0xbd8eb920	-0.069689035
180	0x3d493db2	0.049131103
181	0x3bd8b711	0.00661362
182	0x3afcc174	0.0019283728
183	0xbd1010d8	-0.035172313
184	0x3c8da26a	0.01728936
185	0xbd6ff07b	-0.05857895
186	0x3d5881b8	0.052858084
187	0xbcb1f8d7	-0.021725101
188	0xbd2dd22a	-0.042436756
189	0xbd429f73	-0.047515344
190	0xbd7373fa	-0.059436776
191	0x3d51feb1	0.051268283
192	0xbd2cacd6	-0.042157017
193	0x3d15090b	0.036385577
194	0xbd57560c	-0.052572295
195	0x3cebf23a	0.028802026
196	0x3d3cdedd	0.046110976
197	0x3d3ad4b5	0.04561301
198	0x3c9858c5	0.018597016
199	0x3ca2a7e5	0.019855449
200	0xbb945963	-0.0045272573
201	0xbd05e3c6	-0.032687925
202	0xbd6cea89	-0.057840858
203	0xbd5b7fcb	-0.05358867
204	0xbcd5c0ad	-0.026092852
205	0x3cdbf34e	0.026849415
206	0xbcbe09a2	-0.023197953
207	0xbbc74f41	-0.006082446
208	0xbd065c18	-0.03280267
209	0xbd05898b	-0.032601874
210	0x3d3fe861	0.046852473
211	0xbd4bc7cd	-0.04975109
212	0x3d00d6c4	0.031454816
213	0xbd79fa0a	-0.06102947
214	0x3c73da53	0.0148835955
215	0x3ce60f5a	0.028083492
216	0xbbc2b22d	-0.0059416504
217	0xbd874267	-0.06604462
218	0x3d04d73e	0.032431833
219	0xbcc711f6	-0.024300557
220	0xbccd206f	-0.02503988
221	0xbc8ab8a4	-0.016933747
222	0xbd331b56	-0.04372724
223	0xbd6e9824	-0.05825056
224	0x3c0b9c31	0.008521126
225	0xbd32d8ff	-0.043663975
226	0xbd55d409	-0.052204166
227	0xbd0e432b	-0.034732025
228	0xbd36b292	-0.04460389
229	0xbcd6f65b	-0.026240518
230	0x3be9ddb2	0.007137024
231	0xbdd8af54	-0.10580316
232	0x3c492d8f	0.012278928
233	0xbd96ffc0	-0.07372999
234	0xbd60f366	-0.054919623
235	0xbc2d6b88	-0.0105847195
236	0xbd85374d	-0.065046884
237	0xbd27253e	-0.040807
238	0x3d089914	0.03334911
239	0x3c10bfce	0.008834792
240	0xbd25fca4	-0.04052414
241	0x3c885e50	0.016646534
242	0xbd6e5d42	-0.058194406
243	0x3d17e29c	0.037081346
244	0x3d5566b0	0.052099884
245	0xbd57ae93	-0.05265672
246	0x3d4fa119	0.050690744
247	0x3d1d7a24	0.03844656
248	0xbce79414	-0.028268851
249	0xbcc6b74c	-0.024257325
250	0x3d348c1c	0.04407893
251	0xbd62ffd3	-0.055419754
252	0xbd20c0c6	-0.039246343
253	0xbbb6a2af	-0.0055735926
254	0xbdbdfdff	-0.092769615
255	0xbd8b94f9	-0.06815524

b3.bias f4 [64]
0	0xbe3df8e8	-0.18551981
1	0xbed187b5	-0.4092385
2	0xbe83c458	-0.25735736
3	0xbfb2980c	-1.3952651
4	0x4039f8e5	2.9058163
5	0x3e9fb910	0.3119588
6	0x3e3c3aac	0.18381757
7	0xbdb9786b	-0.09056171
8	0xbe2958d9	-0.16537799
9	0xbe15f321	-0.14643528
10	0xbe2230f0	-0.1583898
11	0xbe6f51a3	-0.23370986
12	0x3fa2da3e	1.2722852
13	0x3fd8b2f8	1.6929617
14	0xbe1bca0a	-0.1521379
15	0xbfb670d1	-1.4253179
16	0xbddf4ae8	-0.10902959
17	0xc04239c2	-3.0347753
18	0x3fba4b43	1.4554218
19	0xbe29d02c	-0.16583318
20	0x3c566e21	0.01308778
21	0x403102cf	2.7657964
22	0xbf1e4e76	-0.6183847
23	0x400fd47b	2.2473438
24	0x3e7602a9	0.24024452
25	0xbef8e72c	-0.4861387
26	0x3f15f42a	0.5857569
27	0x4010feff	2.2655637
28	0xbff9ea95	-1.9524714
29	0xbf41da95	-0.75724155
30	0xc0b160e2	-5.5430765
31	0xc053b62c	-3.307994
32	0xc03e6946	-2.9751754
33	0x3dea8626	0.11451368
34	0x40412f6e	3.0185199
35	0xbe303939	-0.17209329
36	0xbdb7b0c6	-0.08969264
37	0x408c9033	4.3926024
38	0x3e2200ba	0.1582059
39	0xbfacea22	-1.3508952
40	0x3e00fb5a	0.12595883
41	0xbfe1523e	-1.7603223
42	0xc034c256	-2.8243613
43	0xbd7b2141	-0.06131101
44	0xbde7257e	-0.11286448
45	0x4018564d	2.3802674
46	0x40826cf2	4.075799
47	0xc01a6ac4	-2.4127665
48	0xbe2957fc	-0.1653747
49	0x3f0badfd	0.5456236
50	0xbed8c216	-0.42335576
51	0x3f5556a9	0.8333536
52	0xbdedcc35	-0.11611215
53	0xbfd9a62b	-1.7003835
54	0xbdd5b0e4	-0.1043413
55	0x40870abb	4.22006
56	0x3fd2d53c	1.6471324
57	0xc068b0e7	-3.6357973
58	0xbfd273eb	-1.6441625
59	0xbe33416b	-0.17505424
60	0xc01d7a2b	-2.4605815
61	0x40e18204	7.047121
62	0x3ebb1ce9	0.36545494
63	0xbdf8cfd6	-0.121490166
